tft_src/models/sharded/tft_air_quality_epoch_0.ckpt (torch, 984854 bytes, 747 tensors)

input_embeddings.embeddings.station_loc.weight f4 [37, 12]
-1.187651 -1.1819181 -1.464196 -3.4758427 0.8671238 -0.3156734 2.5144827 -1.8505958
0.061132196 -0.52790636 -0.6109917 -1.2077867 -1.2714691 -1.6561449 -0.93602484 -1.58586
-3.9125838 3.0545492 4.032223 -3.5847352 -2.8687496 2.3989618 2.9228883 -0.5099367
-3.4256659 0.51726556 -2.0604422 -2.3503416 0.8674797 3.0787938 -0.37017867 2.3962255
-0.49795532 1.2114832 2.8073404 0.30058455 -1.6819608 -3.8495462 -0.15274628 -0.37387583
-0.68993026 1.1614006 -1.6556816 -4.5014653 1.3030787 0.91450316 0.6903177 0.46954387
1.2109624 0.041403666 0.06957933 -0.2532529 0.1527813 -0.23371941 1.8159806 -0.033118885
-0.8726064 -4.2527347 -0.10935928 0.30146295 0.9667126 1.3863895 -0.012479771 0.43139926
1.8128853 -2.3339376 -2.708686 1.7389466 1.2924299 -0.23014751 -2.6269808 -1.4955804
-2.0993624 4.8584037 3.8540401 3.5821924 -1.5838649 -0.2692262 1.3910048 2.331113
-1.5922464 -2.2911232 -0.21739864 1.3372074 1.9803661 -0.24132742 0.36107218 3.5719025
-0.54783905 -2.1464872 -0.8407508 0.63674843 1.8030345 2.8087957 -1.4352928 1.1381717
1.9520216 2.1001332 0.5485686 -0.70344645 -0.25437018 -0.8428194 -1.0404532 -0.85421956
0.8473385 -0.15961908 -0.31829304 0.71164805 2.1194847 -0.0016464083 0.35321388 -0.5632101
-0.8976512 0.31217727 1.078281 1.6209472 -0.09891041 -0.15872312 -0.07270631 1.1307809
-0.4480531 1.0877384 -0.287107 -0.7144356 0.58351016 -0.15327142 -0.14881894 -1.0310618
-1.048325 -0.5434988 1.1626726 -0.6399933 0.36829728 -0.8146063 0.23124397 -1.1758275
-0.92051333 -0.26924315 0.9156653 0.116936974 1.4678695 -0.17647576 -1.4795067 1.1407425
-0.29269978 0.3905864 -1.3007722 -0.1661332 1.0692652 -1.1093271 0.25524887 0.86041987
-0.46839947 -0.33099926 1.0086118 1.3048805 0.28136852 -1.4536967 0.44944477 1.8874248
-0.10377588 0.81699264 -0.3854745 1.2062559 0.63270295 -1.168229 0.074004695 -1.258946
1.2406317 -0.19537713 0.12526402 -0.49733835 -1.2208378 -1.2634383 -0.9455869 1.1253101
0.50311357 -0.21563184 0.4041451 0.9560755 -0.32752347 0.4720191 -0.603769 0.8804239
-0.9599368 0.70072865 -1.5894773 -0.17344739 1.392332 -0.6662953 1.6790231 0.5192153
0.22991079 0.4853763 -0.7429353 -1.1076245 -0.59415597 -0.582407 -1.2627131 0.77501523
0.08217998 -0.03207948 0.91449785 -0.00058925553 0.80401695 0.20439158 0.023844717 -0.045218952
0.9789419 -0.3038142 0.7169615 0.36494622 -2.4413323 -1.3649426 0.65040034 -2.114796
-1.130075 1.1405993 -0.071952134 -1.0042711 0.9197972 1.2681351 -1.1916449 -0.4874776
-1.3891151 -1.3372797 0.25473157 -0.7258237 0.0049591046 -0.95630103 -0.15942693 -0.062014807
0.28029752 1.2514111 0.9849086 -1.2559105 0.5649752 1.774874 -1.1357793 -0.29377747
-0.76093185 -0.0002615508 0.5816276 -1.2486815 2.1272836 0.8387056 -1.5492665 -0.26405394
-0.40341088 1.271641 -2.2145777 -0.30993986 -1.312122 0.6276572 2.2526805 -1.2701777
00000000: f304 98bf 1849 97bf c66a bbbf 3574 5ec0
00000010: d3fb 5d3f f29f a1be 49ed 2040 53e0 ecbf
00000020: c165 7a3d df24 07bf f469 1cbf c198 9abf
00000030: 80bf a2bf 8efc d3bf 539f 6fbf 76fd cabf
00000040: c667 7ac0 bc7d 4340 f907 8140 4d6c 65c0
00000050: 9899 37c0 9788 1940 9a10 3b40 368b 02bf
00000060: 1c3e 5bc0 846b 043f 49de 03c0 ff6b 16c0
00000070: 2613 5e3f f50a 4540 0f88 bdbe c25b 1940
00000080: 00f4 febe e211 9b3f 77ab 3340 38e6 993e
00000090: 7e4a d7bf f75e 76c0 8569 1cbe a76c bfbe
000000a0: 459f 30bf c6a8 943f 60ed d3bf 010c 90c0
000000b0: 48cb a63f e11c 6a3f a9b8 303f 0e68 f03e
000000c0: d100 9b3f e496 293d 9c7f 8e3d 5daa 81be
000000d0: b372 1c3e 2454 6fbe 0d72 e83f aba7 07bd
000000e0: 2263 5fbf 6716 88c0 c2f7 dfbd 5a59 9a3e
000000f0: 7a7a 773f 3675 b13f f477 4cbc 5de0 dc3e
00000100: a00c e83f 3c5f 15c0 1d5b 2dc0 cd95 de3f
00000110: 586e a53f caab 6bbe 7420 28c0 2e6f bfbf
00000120: f45b 06c0 0b78 9b40 98a8 7640 a442 6540
00000130: 16bc cabf 04d8 89be 720c b23f f530 1540
00000140: bbce cbbf c3a1 12c0 c09d 5ebe 9d29 ab3f
00000150: a37c fd3f 891e 77be 74de b83e 0d9a 6440
00000160: 2e3f 0cbf 0c60 09c0 723b 57bf f201 233f
00000170: d6c9 e63f 4fc3 3340 adb7 b7bf 9caf 913f
00000180: d8db f93f 9568 0640 fe6e 0c3f 1115 34bf
00000190: cf3c 82be 03c3 57bf 922d 85bf 22ae 5abf
000001a0: 2deb 583f 2f73 23be 4ef7 a2be 912e 363f
000001b0: a3a5 0740 4ccc d7ba 73d8 b43e 8a2e 10bf
000001c0: 78cc 65bf b3d5 9f3e 1d05 8a3f 337b cf3f
000001d0: 8b91 cabd 5088 22be 0ce7 94bd 6ebd 903f
000001e0: 3767 e5be 033b 8b3f b0ff 92be 40e5 36bf
000001f0: ec60 153f 2ff3 1cbe fe63 18be d5f9 83bf
00000200: 832f 86bf bd22 0bbf 75d2 943f 9ad6 23bf
00000210: 7691 bc3e 0a8a 50bf 38cb 6c3e 8481 96bf
00000220: c3a6 6bbf 3dda 89be 0b69 6a3f a77c ef3d
00000230: 26e3 bb3f 10b6 34be 7a60 bdbf da03 923f
00000240: bfdc 95be f1fa c73e b47f a6bf d21e 2abe
00000250: afdd 883f 6efe 8dbf fbaf 823e 7a44 5c3f
00000260: 0ed2 efbe bc78 a9be 311a 813f 5306 a73f
00000270: 890f 903e bc12 babf a01d e63e 2397 f13f
00000280: 7388 d4bd 6e26 513f ea5c c5be 9866 9a3f
00000290: d2f8 213f 8788 95bf c68f 973d 2425 a1bf
000002a0: 05cd 9e3f f110 48be 3645 003e 22a3 febe
000002b0: 6a44 9cbf 59b8 a1bf fc11 72bf 290a 903f
000002c0: 0dcc 003f 98ce 5cbe 1bec ce3e 5dc1 743f
000002d0: 28b1 a7be 7dac f13e 9b90 1abf 7663 613f
000002e0: 6bbe 75bf f462 333f fe73 cbbf 319c 31be
000002f0: ef37 b23f 5492 2abf 3bea d63f 4beb 043f
00000300: bc6d 6b3e 3e83 f83e 0231 3ebf a4c6 8dbf
00000310: 9b1a 18bf a018 15bf 95a0 a1bf 6667 463f
00000320: fa4d a83d c665 03bd 881c 6a3f 4578 1aba
00000330: 0ed4 4d3f 074c 513e ff55 c33c 8237 39bd
00000340: f09b 7a3f 898d 9bbe ca8a 373f 3bda ba3e
00000350: ca3e 1cc0 70b6 aebf a380 263f d158 07c0
00000360: 4ca6 90bf 28ff 913f a45b 93bd f58b 80bf
00000370: d477 6b3f 4052 a23f d287 98bf aa96 f9be
00000380: 86ce b1bf fb2b abbf 2d6c 823e 95cf 39bf
00000390: fc7f a23b 25d0 74bf d040 23be 3d03 7ebd
000003a0: 2883 8f3e 3d2e a03f f822 7c3f adc1 a0bf
000003b0: 37a2 103f 122f e33f 3761 91bf 006a 96be
000003c0: 6ecc 42bf c120 89b9 8ce5 143f ccd4 9fbf
000003d0: 6a25 0840 69b5 563f 5d4e c6bf 1432 87be
000003e0: df8b cebe 22c5 a23f a4bb 0dc0 70b0 9ebe
000003f0: 9df3 a7bf 24ae 203f eb2b 1040 2f95 a2bf

prescalers.latitude.weight f4 [16, 1]
0.44396687 0.5475805 0.62138957 0.46692976 -1.4553742 -1.2838707 0.19373406 0.8358275
-0.92915756 0.0043294234 -0.5881204 0.8877292 0.8537004 -0.14886782 -1.1724348 -0.15002325
00000000: a04f e33e 3c2e 0c3f 6313 1f3f 6b11 ef3e
00000010: b449 babf e055 a4bf 3962 463e cbf8 553f
00000020: 45dd 6dbf d6dd 8d3b 0f8f 16bf 3942 633f
00000030: 1c8c 5a3f ce70 18be 5812 96bf b29f 19be

prescalers.latitude.bias f4 [16]
-0.38161245 0.85305035 -0.5885715 -0.7381135 -1.2345363 -0.7333575 0.6657473 -0.19847193
-1.3760644 0.52053833 -0.8510979 -0.31426856 -0.45415735 0.16663018 -0.9272438 1.3409789
00000000: b562 c3be 8261 5a3f 9fac 16bf 02f5 3cbf
00000010: 4905 9ebf 51bd 3bbf 6a6e 2a3f 3a3c 4bbe
00000020: e122 b0bf 0042 053f 8de1 59bf cfe7 a0be
00000030: 5087 e8be 1aa1 2a3e da5f 6dbf 32a5 ab3f

prescalers.longitude.weight f4 [16, 1]
-0.97737 -0.22000495 0.059958644 -0.33060512 0.3539924 0.46242642 0.55299366 -0.030151973
-0.9648781 0.18038142 0.33696917 -0.24718171 -0.7203071 0.6575811 -0.45219678 0.33835447
00000000: ec34 7abf fa48 61be 3297 753d 1345 a9be
00000010: 7e3e b53e 28c3 ec3e fe90 0d3f 4501 f7bc
00000020: 4002 77bf e8b5 383e 3987 ac3e 341d 7dbe
00000030: 0c66 38bf 3c57 283f 5686 e7be cc3c ad3e

prescalers.longitude.bias f4 [16]
-1.22617 -1.2966219 -0.24896473 -0.20494936 1.6146929 1.0307536 0.3190015 -1.5401156
0.052877467 2.3430104 1.6746691 -1.8032675 -0.49874482 0.61833996 0.9106608 0.43287033
00000000: 23f3 9cbf b5f7 a5bf 9cf0 7ebe 3fde 51be
00000010: 42ae ce3f bcef 833f 2a54 a33e 8222 c5bf
00000020: 0b96 583d e2f3 1540 8f5b d63f 78d1 e6bf
00000030: 7b5b ffbe 874b 1e3f 1121 693f 2ea1 dd3e

prescalers.encoder_length.weight f4 [16, 1]
-0.2350021 -2.1410422 1.7752033 2.2291028 -0.76539207 -0.49666607 -0.6212026 -1.771475
-2.5959024 0.5860611 -0.9351198 -0.71284026 -1.6396022 -0.7190296 -1.00323 2.4863203
00000000: 64a4 70be d606 09c0 dd39 e33f 9fa9 0e40
00000010: bcf0 43bf 044b febe 2207 1fbf b1bf e2bf
00000020: 4423 26c0 1a08 163f 0364 6fbf b37c 36bf
00000030: 7cde d1bf 5312 38bf d769 80bf df1f 1f40

prescalers.encoder_length.bias f4 [16]
0.45343682 -1.9962927 0.75252646 2.3103495 -0.044443764 -0.11094829 0.72269106 -1.6980184
-0.9437581 1.2331164 -1.2078533 0.17313096 -0.85650355 -0.66518825 -0.9507248 1.8895245
00000000: df28 e83e 8586 ffbf 93a5 403f c4dc 1340
00000010: aa0a 36bd db38 e3bd 4802 393f ab58 d9bf
00000020: 219a 71bf c2d6 9d3f f09a 9abf 3e49 313e
00000030: d143 5bbf c749 2abf b362 73bf f0db f13f

prescalers.PM25_center.weight f4 [16, 1]
1.4427812 0.068364054 1.1884142 0.6882178 0.5142304 1.9045632 1.1624526 0.6661235
0.7915084 0.68635994 -0.8001378 -0.5950335 0.2047752 0.3114297 0.24828698 1.9219762
00000000: 0ead b83f 7402 8c3d f51d 983f 0b2f 303f
00000010: 9aa4 033f bac8 f33f 3fcb 943f 1287 2a3f
00000020: 4ba0 4a3f 49b5 2f3f d5d5 4cbf 1e54 18bf
00000030: 97b0 513e b773 9f3e f13e 7e3e 5103 f63f

prescalers.PM25_center.bias f4 [16]
0.009434717 -0.97739667 -0.3248036 0.3227998 -0.25636616 -0.6903445 -0.20091277 -0.31157446
0.75194603 0.6399886 0.22797285 0.41097537 -0.8140219 -0.22752748 -0.79047036 -0.37751397
00000000: 1294 1a3c ab36 7abf a84c a6be 0446 a53e
00000010: 6d42 83be 6bba 30bf 14bc 4dbe b086 9fbe
00000020: 897f 403f 4bd6 233f b771 693e 5d6b d23e
00000030: bd63 50bf f7fc 68be 445c 4abf 8349 c1be

prescalers.PM25_scale.weight f4 [16, 1]
0.4730859 -0.55285305 -0.47387674 -0.86150753 0.027826833 0.7801413 -0.8803137 0.41928962
-0.58120024 0.90722936 0.76993215 0.056933142 0.77789634 -0.54358834 0.6644244 1.0498391
00000000: 5138 f23e c787 0dbf f99f f2be c28b 5cbf
00000010: 19f5 e33c 57b7 473f 3d5c 61bf 21ad d63e
00000020: 8ac9 14bf 2f40 683f 461a 453f ba32 693d
00000030: 3724 473f 9b28 0bbf b817 2a3f 2161 863f

prescalers.PM25_scale.bias f4 [16]
0.1681067 -1.3294885 1.6044044 1.8447785 1.7226341 -2.0407817 -0.9565866 1.0590756
1.3743746 -2.3085282 -1.6737665 -0.97246563 -2.0906234 1.8356438 0.9972637 1.3012648
00000000: 2a24 2c3e ae2c aabf 205d cd3f b421 ec3f
00000010: 467f dc3f 2b9c 02c0 dce2 74bf ca8f 873f
00000020: 82eb af3f edbe 13c0 fb3d d6bf 82f3 78bf
00000030: c6cc 05c0 60f6 ea3f ad4c 7f3f d88f a63f

prescalers.time_idx.weight f4 [16, 1]
0.0013828275 -0.002469163 0.0012948588 -0.011875241 0.018551478 -0.013062419 2.6089377 -1.0208721
-0.9247489 -2.7249365 -0.7954801 0.0017591194 2.141412 -6.829739 -0.0010891955 0.011686168
00000000: fe3f b53a aed1 21bb 40b8 a93a 5f90 42bc
00000010: 45f9 973c c203 56bc d6f8 2640 f0ab 82bf
00000020: 58bc 6cbf 5c65 2ec0 95a4 4bbf 4192 e63a
00000030: e50c 0940 398d dac0 56c3 8eba 5777 3f3c

prescalers.time_idx.bias f4 [16]
0.0011966317 -0.0021633802 0.0013089243 -0.010919938 0.015060901 -0.0077502956 -1.1370198 -0.3807058
-0.9467093 3.5443368 0.7533578 0.0016733236 -1.6547635 0.9065367 -0.013629827 0.0066939313
00000000: 4cd8 9c3a 7fc7 0dbb 3690 ab3a 8ae9 32bc
00000010: ffc1 763c 31f6 fdbb dd89 91bf dfeb c2be
00000020: 8a5b 72bf 6ad6 6240 0fdc 403f 6c53 db3a
00000030: 4acf d3bf ca12 683f a34f 5fbc c458 db3b

prescalers.relative_time_idx.weight f4 [16, 1]
0.35123113 -0.40467268 -1.3536698 -1.3426183 0.79135776 0.41642296 -0.11386762 -0.52173066
0.17878608 -0.60619634 -0.015452364 1.1831926 1.2330241 -0.6421371 -1.0280932 0.5776292
00000000: 91d4 b33e 4231 cfbe 0d45 adbf ebda abbf
00000010: 6c96 4a3f 6435 d53e 6d33 e9bd 2490 05bf
00000020: b313 373e af2f 1bbf ea2b 7dbc db72 973f
00000030: bcd3 9d3f 1963 24bf 8f98 83bf 82df 133f

prescalers.relative_time_idx.bias f4 [16]
0.9568265 0.58285826 -0.33086038 -1.2090675 0.6427346 -1.1935928 -0.42942035 0.57439035
0.6382265 -1.1486833 0.9307203 -0.34140998 1.2033398 -0.9882698 0.604689 -0.67653006
00000000: 95f2 743f 3336 153f 8866 a9be b9c2 9abf
00000010: 418a 243f a6c7 98bf fcdc dbbe 3f0b 133f
00000020: d062 233f 0e08 93bf b043 6e3f 4acd aebe
00000030: 0a07 9a3f 40ff 7cbf e6cc 1a3f 1331 2dbf

prescalers.PM25.weight f4 [16, 1]
0.23717907 -0.67798954 0.6130039 0.3531437 -0.78239167 -0.8578588 -0.12822591 0.79664344
0.8009863 -0.32497025 0.6269314 -0.9428223 0.5286708 1.0085356 0.3696521 0.22734462
00000000: 12df 723e b990 2dbf d3ed 1c3f 40cf b43e
00000010: d24a 48bf a29c 5bbf a74d 03be d3f0 4b3f
00000020: 700d 4d3f 8062 a6be 947e 203f cd5c 71bf
00000030: f856 073f b217 813f 0a43 bd3e 07cd 683e

prescalers.PM25.bias f4 [16]
0.9065396 1.5220466 -1.0171608 1.3213944 1.1115767 0.0799202 1.0993654 -0.31426567
-0.8387776 -1.8658845 -0.59827924 1.0941172 -0.47256446 0.66905254 -0.6908895 1.3558831
00000000: fb12 683f 6cd2 c23f 5332 82bf 7423 a93f
00000010: 2548 8e3f 34ad a33d 01b8 8c3f 6ee7 a0be
00000020: 21ba 56bf 4ed5 eebf d428 19bf 080c 8c3f
00000030: f8f3 f1be 0747 2b3f 22de 30bf 948d ad3f

prescalers.embedding_1.weight f4 [16, 1]
-1.0402371 0.68268096 0.5340459 0.5634123 0.17168516 0.32333738 0.44341144 0.8585594
-0.17468108 -1.0164424 -0.09021549 0.31164357 -0.81246626 -0.40480584 -1.0086274 0.8428861
00000000: 7d26 85bf 2ec4 2e3f 3bb7 083f ca3b 103f
00000010: 3cce 2f3e 7a8c a53e d306 e33e 8dca 5b3f
00000020: 99df 32be c91a 82bf e6c2 b8bd bf8f 9f3e
00000030: cafd 4fbf b642 cfbe b41a 81bf 62c7 573f

prescalers.embedding_1.bias f4 [16]
-0.66343427 0.6777611 -0.2826356 -0.08238376 -1.0156474 -0.7802382 -0.1678358 -0.047516745
0.33795914 -0.5987422 1.1120616 -0.21766178 -0.07180998 0.86552536 -0.90479714 0.13334066
00000000: d4d6 29bf c081 2d3f 9db5 90be d1b8 a8bd
00000010: bc00 82bf b1bd 47bf 26dd 2bbe eba0 42bd
00000020: fb08 ad3e 2b47 19bf 0958 8e3f bbe2 5ebe
00000030: 1c11 93bd 1293 5d3f c9a0 67bf 748a 083e

prescalers.embedding_2.weight f4 [16, 1]
1.0486591 -1.0637369 0.72763777 0.65286064 -0.13982728 0.510101 -1.0310366 -0.9847728
-0.9273407 -0.9664624 1.4493068 0.2509643 1.2389215 -0.4306232 -0.1401123 -1.718935
00000000: 763a 863f 8828 88bf 7846 3a3f e021 273f
00000010: e22e 0fbe fb95 023f 02f9 83bf 121a 7cbf
00000020: 3366 6dbf 146a 77bf e382 b93f 657e 803e
00000030: fb94 9e3f a57a dcbe 9979 0fbe 1006 dcbf

prescalers.embedding_2.bias f4 [16]
-0.0638566 0.40764368 -0.12633087 1.068417 -1.1782643 0.9829575 -0.2106929 -0.6809783
-1.299926 -1.5894991 0.90965396 1.2422183 1.2902632 -1.0222934 0.55906403 -0.25048822
00000000: 40c7 82bd acb6 d03e e15c 01be e3c1 883f
00000010: 5dd1 96bf 1aa3 7b3f e1bf 57be 9854 2ebf
00000020: fa63 a6bf b574 cbbf 15df 683f 0201 9f3f
00000030: 5827 a53f 83da 82bf d21e 0f3f fe3f 80be

prescalers.embedding_3.weight f4 [16, 1]
0.90511286 -0.16199973 -0.19241205 -0.21007195 0.84413403 0.88685125 -0.5754118 -0.27151957
0.90064543 -0.4565046 -0.7278252 0.99041855 -0.058696747 -0.9370948 -0.227329 0.56153387
00000000: 7ab5 673f 42e3 25be aa07 45be 1a1d 57be
00000010: 2b19 583f af08 633f 304e 13bf 9d04 8bbe
00000020: b390 663f f9ba e9be c152 3abf 128c 7d3f
00000030: 006c 70bd 72e5 6fbf efc8 68be afc0 0f3f

prescalers.embedding_3.bias f4 [16]
0.12679586 -1.497353 0.91973907 0.2776774 1.1529619 -0.017392796 -1.1207801 -0.8706209
-0.020417042 -0.8702745 -1.0581318 0.4649162 0.94467777 -1.3188508 1.4370042 1.4824902
00000000: c6d6 013e 43a9 bfbf 0574 6b3f bb2b 8e3e
00000010: 4194 933f 567b 8ebc b975 8fbf 03e1 5ebf
00000020: a441 a7bc 4fca 5ebf dd70 87bf 7f09 ee3e
00000030: 67d6 713f 1ad0 a8bf c1ef b73f 3dc2 bd3f

prescalers.embedding_4.weight f4 [16, 1]
-1.1406441 -0.3299344 -0.05386424 0.3084879 0.72406006 -0.9629912 -0.48520738 0.2153243
-0.3997008 0.066817865 0.47854286 -0.057333894 0.1732716 -0.40042925 -1.0710156 0.63956296
00000000: a000 92bf 29ed a8be c0a0 5cbd 20f2 9d3e
00000010: 005c 393f 9786 76bf 1a6d f8be f97d 5c3e
00000020: 95a5 ccbe ced7 883d 9203 f53e f2d6 6abd
00000030: 1c6e 313e 1005 cdbe 0a17 89bf 66ba 233f

prescalers.embedding_4.bias f4 [16]
0.527304 1.066447 -0.7344506 -1.3189155 -0.62172663 0.8770822 1.197186 -0.36379418
0.7759009 1.0344667 -1.381432 0.912105 0.64524925 1.5407043 1.0320235 -2.0191414
00000000: 65fd 063f 5681 883f f404 3cbf 39d2 a8bf
00000010: 7a29 1fbf 7688 603f 643d 993f 3b43 babe
00000020: 71a1 463f 6869 843f c4d2 b0bf b77f 693f
00000030: 0e2f 253f cc35 c53f 5919 843f 9d39 01c0

prescalers.embedding_5.weight f4 [16, 1]
0.88941604 -0.8864762 -0.4241793 -0.6188444 0.56853163 -0.15859607 -1.3166775 -0.7165915
1.4542698 -0.28189346 0.67475885 -1.1716225 -0.8835137 -0.8368177 -1.0185426 -0.5578621
00000000: c5b0 633f 1bf0 62bf 072e d9be 966c 1ebf
00000010: 4a8b 113f 0267 22be e388 a8bf 8a72 37bf
00000020: 8325 ba3f 5754 90be ffbc 2c3f baf7 95bf
00000030: f42d 62bf af39 56bf 9b5f 82bf 0dd0 0ebf

prescalers.embedding_5.bias f4 [16]
0.7632274 -0.61308 -0.31146175 0.87237996 0.99425775 -1.4689022 -0.139624 -0.62962526
0.50532913 0.5664329 -1.0648975 -0.17961773 -0.53048974 -0.54598176 0.6628606 0.10299101
00000000: df62 433f d0f2 1cbf ea77 9fbe 4b54 5f3f
00000010: ad87 7e3f fd04 bcbf 98f9 0ebe 1f2f 21bf
00000020: 405d 013f bf01 113f 904e 88bf b6ed 37be
00000030: 2dce 07bf 76c5 0bbf 3bb1 293f f3ec d23d

prescalers.embedding_6.weight f4 [16, 1]
-0.18416776 0.27473846 1.1550828 -0.4726315 0.12586571 0.8710212 -0.08772206 -0.2556486
-1.0529501 -0.4221265 -0.25711766 1.6908994 -0.8304136 -0.82016325 -0.021710204 -0.07277145
00000000: 7996 3cbe 85aa 8c3e c1d9 933f c2fc f1be
00000010: f1e2 003e 3ffb 5e3f a0a7 b3bd 60e4 82be
00000020: 12c7 86bf f720 d8be eda4 83be 646f d83f
00000030: fc95 54bf 38f6 51bf 99d9 b1bc 3309 95bd

prescalers.embedding_6.bias f4 [16]
0.94755566 -1.3962495 -0.86778045 -1.7018557 0.73736006 -0.62229407 -1.1017232 -1.2402661
0.5524666 -0.8368973 1.3541306 -1.0276414 1.3029194 0.8706994 1.7569668 0.7789808
00000000: 0293 723f 4eb8 b2bf dc26 5ebf 68d6 d9bf
00000010: a1c3 3c3f aa4e 1fbf 4405 8dbf 0ac1 9ebf
00000020: 736e 0d3f e73e 56bf 2754 ad3f c189 83bf
00000030: 10c6 a63f 28e6 5e3f 4ae4 e03f 496b 473f

prescalers.embedding_7.weight f4 [16, 1]
0.21829107 -0.8316921 0.7584357 1.4773815 -0.82371247 -1.1775265 0.8595866 -0.09775416
0.7646182 0.48591918 -0.54074115 -1.5064381 0.4939579 0.18311322 0.44034493 0.0002788964
00000000: b287 5f3e c6e9 54bf d828 423f d61a bd3f
00000010: d2de 52bf 30b9 96bf de0d 5c3f 5533 c8bd
00000020: 05be 433f 66ca f83e 036e 0abf f7d2 c0bf
00000030: 0de8 fc3e 0882 3b3e e474 e13e d738 9239

prescalers.embedding_7.bias f4 [16]
-0.9981123 -0.3156492 0.69548386 0.7697514 -0.58653474 -1.2996649 0.73409617 0.75509614
0.006131293 0.7298266 -1.3087473 -1.0040412 0.39650312 1.4533937 0.28089106 0.9054469
00000000: 4a84 7fbf c69c a1be 3b0b 323f 6e0e 453f
00000010: 2427 16bf 6b5b a6bf baed 3b3f fb4d 413f
00000020: 03e9 c83b ebd5 3a3f 0885 a7bf 6c84 80bf
00000030: 7502 cb3e ce08 ba3f f4d0 8f3e 5ecb 673f

prescalers.embedding_8.weight f4 [16, 1]
0.42211872 0.066241205 -0.76896507 -1.748675 0.85592306 -1.0344225 -0.86375695 -0.19772273
-0.7923478 0.10563253 0.53677255 -1.1338934 -1.0138245 0.40138534 -0.29718655 -0.5345047
00000000: f21f d83e 78a9 873d e5da 44bf 95d4 dfbf
00000010: c61d 5b3f f567 84bf 2d1f 5dbf d477 4abe
00000020: 4ed7 4abf de55 d83d ed69 093f 6b23 91bf
00000030: 00c5 81bf 6182 cd3e d628 98be 4dd5 08bf

prescalers.embedding_8.bias f4 [16]
0.01407453 -1.4204605 0.7514187 1.4677526 1.1675986 0.6371321 -0.97846484 0.9951505
0.5182466 0.37047604 0.5792497 1.1070071 1.2566566 -1.4133466 0.9589819 0.6903168
00000000: dc98 663c a6d1 b5bf fa5c 403f 51df bb3f
00000010: df73 953f 171b 233f ac7c 7abf 2fc2 7e3f
00000020: cfab 043f 09af bd3e b549 143f 69b2 8d3f
00000030: 20da a03f 8be8 b4bf d67f 753f 9ab8 303f

prescalers.embedding_9.weight f4 [16, 1]
0.93681234 0.36349505 -1.3557582 -0.04160343 -0.6354869 -1.0314083 1.0852888 2.1629162
0.4452398 -1.7356449 0.18009758 0.07337261 -0.45331988 -0.57804865 -0.732595 -0.5754337
00000000: efd2 6f3f 061c ba3e 7c89 adbf 5c68 2abd
00000010: 45af 22bf 3005 84bf beea 8a3f 386d 0a40
00000020: 79f6 e33e 9d29 debf 806b 383e 6144 963d
00000030: 8b19 e8be fffa 13bf 598b 3bbf 9f4f 13bf

prescalers.embedding_9.bias f4 [16]
1.236007 0.996667 -0.2958919 1.6391122 -0.35867378 -0.6919353 0.70197207 1.1005428
0.1912843 -1.4203871 -0.7972207 -1.8511338 -1.1421599 -1.1769433 0.30563012 -1.4685477
00000000: 7a35 9e3f 9225 7f3f 257f 97be 6ece d13f
00000010: 17a4 b7be ac22 31bf 71b4 333f 96de 8c3f
00000020: 08e0 433e 3fcf b5bf a816 4cbf f4f1 ecbf
00000030: 4c32 92bf 14a6 96bf 8d7b 9c3e 5ff9 bbbf

prescalers.embedding_10.weight f4 [16, 1]
-0.07068714 -0.44318023 0.7719996 0.32814708 -0.3883387 -1.0493245 -0.7099354 -1.2143956
-0.25190046 0.25422275 0.16652621 -0.41389588 -0.007936844 0.83018327 0.56118846 0.7379149
00000000: 6bc4 90bd 85e8 e2be c4a1 453f e502 a83e
00000010: 55d4 c6be 4450 86bf 54be 35bf 5171 9bbf
00000020: 19f9 80be 7c29 823e d985 2a3e 29ea d3be
00000030: 8909 02bc e486 543f 0caa 0f3f fee7 3c3f

prescalers.embedding_10.bias f4 [16]
0.65977705 -1.0966741 -0.31087577 1.0858579 -0.39441603 0.7528664 0.50318605 0.93489516
0.36467645 -0.37144598 0.08625011 0.5516399 -0.029758086 -0.27567145 -1.4006325 0.8036669
00000000: 26e7 283f d15f 8cbf 1c2b 9fbe 64fd 8a3f
00000010: e6f0 c9be dabb 403f cdd0 003f 4a55 6f3f
00000020: dfb6 ba3e 2b2e bebe e6a3 b03d 4638 0d3f
00000030: 3bc7 f3bc cf24 8dbe ed47 b3bf 1dbd 4d3f

prescalers.embedding_11.weight f4 [16, 1]
1.0472503 0.8947243 -0.1421568 0.7561428 -0.072453015 0.36108285 0.7373794 0.7897331
0.46754324 -1.1795852 0.20856723 -0.48514694 -0.20267336 -1.8736085 0.06457333 -0.5609291
00000000: 4c0c 863f a70c 653f 8d91 11be 9392 413f
00000010: 3f62 94bd dadf b83e e5c4 3c3f f32b 4a3f
00000020: d461 ef3e a6fc 96bf a692 553e 2e65 f8be
00000030: 9b89 4fbe 67d2 efbf 063f 843d 0d99 0fbf

prescalers.embedding_11.bias f4 [16]
1.262901 1.3434938 -0.6806603 -0.44908214 0.90811867 -0.50653964 0.71586907 -0.5952407
0.6697656 -0.24845597 1.2827407 -1.3355912 -0.7310738 -1.2245336 1.6928904 1.5280747
00000000: bda6 a13f 9bf7 ab3f c13f 2ebf 18ee e5be
00000010: 777a 683f 95ac 01bf 3243 373f b261 18bf
00000020: c275 2b3f 3e6b 7ebe d930 a43f a7f4 aabf
00000030: a727 3bbf 84bd 9cbf a2b0 d83f f497 c33f

prescalers.embedding_12.weight f4 [16, 1]
-0.86687124 1.8009181 -0.058258157 -0.56288457 -0.15482104 -0.3249495 0.6508139 -0.54317564
-0.77284884 -0.65827554 0.1433908 0.116108745 -0.9425167 0.6154622 -0.8158594 1.7956662
00000000: 46eb 5dbf 7c84 e63f 1ba0 6ebd 3419 10bf
00000010: 6889 1ebe c85f a6be bd9b 263f 8f0d 0bbf
00000020: 6cd9 45bf bf84 28bf 0ad5 123e 6cca ed3d
00000030: c648 71bf ee8e 1d3f 29dc 50bf 64d8 e53f

prescalers.embedding_12.bias f4 [16]
-0.5332641 0.92567605 1.1293775 -0.65490085 -1.380411 0.26044726 0.19046018 -0.7195282
0.73290396 0.5715286 1.5498894 -0.91516143 -1.4360725 0.54112506 -0.7889187 1.1286162
00000000: ff83 08bf 1bf9 6c3f 718f 903f 95a7 27bf
00000010: 4fb1 b0bf 5859 853e fe07 433e 0033 38bf
00000020: 989f 3b3f b34f 123f c762 c63f 0548 6abf
00000030: 39d1 b7bf 2c87 0a3f 93f6 49bf 7f76 903f

prescalers.embedding_13.weight f4 [16, 1]
0.84043694 -0.40609968 0.095806204 -0.63384014 0.11911891 -0.08277434 1.282864 0.88142085
-0.02093627 -0.79085135 1.6592731 0.5451801 -0.22372821 -0.69238406 -0.898679 -0.58682054
00000000: e026 573f 4cec cfbe 0b36 c43d 5943 22bf
00000010: 9df4 f33d 9885 a9bd e334 a43f cca4 613f
00000020: 8a82 abbc 3c75 4abf 1063 d43f ec90 0b3f
00000030: 0219 65be 1540 31bf d40f 66bf df39 16bf

prescalers.embedding_13.bias f4 [16]
0.30181596 0.29327127 1.2337956 -0.24302116 -0.93385625 -0.77240217 1.0045714 0.9097199
0.5552231 -1.0325859 1.3464359 0.89204663 -0.8239991 -1.1344315 -0.4938165 -0.56029886
00000000: 9f87 9a3e a727 963e 04ed 9d3f 8ada 78be
00000010: 3411 6fbf 26bc 45bf cc95 803f 67e3 683f
00000020: 1a23 0e3f c62b 84bf 0358 ac3f 2b5d 643f
00000030: 9bf1 52bf 0d35 91bf 84d5 fcbe bf6f 0fbf

prescalers.embedding_14.weight f4 [16, 1]
0.6692676 -1.7209687 0.21375121 -0.37380946 -0.43515462 0.41516703 -1.9010673 0.1470349
0.8111657 -1.0868105 -0.76281023 0.23284921 0.71342975 -0.15076701 -0.9709373 -0.38342386
00000000: 1f55 2b3f b448 dcbf 99e1 5a3e f463 bfbe
00000010: 96cc debe c690 d43e 2c56 f3bf 5190 163e
00000020: 8ea8 4f3f 9b1c 8bbf 8847 43bf 0670 6e3e
00000030: 55a3 363f ab62 1abe 598f 78bf 2250 c4be

prescalers.embedding_14.bias f4 [16]
-0.7991514 -0.4846899 2.0506968 -0.6667492 -0.71265846 1.0593672 -1.5648351 -1.5457699
0.9790401 -1.4216354 -1.096828 1.6771171 1.1217026 -1.1556399 -1.2613875 -0.9619563
00000000: 3095 4cbf 4629 f8be 9e3e 0340 13b0 2abf
00000010: c970 36bf 5899 873f 844c c8bf cadb c5bf
00000020: 5fa2 7a3f 26f8 b5bf dc64 8cbf c6ab d63f
00000030: f393 8f3f 02ec 93bf 2575 a1bf c542 76bf

prescalers.embedding_15.weight f4 [16, 1]
2.7959244 -0.98457384 1.9262799 1.8428329 0.27216908 1.9543482 -1.3606344 -2.1243033
-1.244254 -1.3982052 0.85200554 -2.289612 -2.1339173 -0.69913125 2.061152 1.9803087
00000000: 6df0 3240 080d 7cbf 5790 f63f f3e1 eb3f
00000010: bf59 8b3e 1528 fa3f 4529 aebf 96f4 07c0
00000020: b743 9fbf 63f8 b2bf 091d 5a3f 0189 12c0
00000030: 1a92 08c0 44fa 32bf eae9 0340 c17a fd3f

prescalers.embedding_15.bias f4 [16]
2.4442885 1.9344249 0.027669778 -2.7270072 -3.3506238 -1.9885114 3.3917496 3.1967733
2.0747797 2.047386 -3.6842673 -2.2737682 1.8485495 -2.362856 -1.7718596 -1.8116792
00000000: 396f 1c40 3c9b f73f bbab e23c 4987 2ec0
00000010: 9f70 56c0 8b87 febf 6d12 5940 ef97 4c40
00000020: 31c9 0440 5f08 0340 09cb 6bc0 6b85 11c0
00000030: 459d ec3f 0839 17c0 4ccc e2bf 1be5 e7bf

prescalers.embedding_16.weight f4 [16, 1]
-0.2291348 -0.24135976 0.8444445 -1.2317132 0.3664687 -0.6339364 0.45336682 -0.13904844
0.83528197 -0.43229085 -0.28174853 0.14021215 1.0816014 -0.052355383 -0.0125707295 0.26286364
00000000: 50a2 6abe 0327 77be 842d 583f c7a8 9dbf
00000010: c9a1 bb3e a849 22bf b21f e83e b762 0ebe
00000020: 0ad5 553f 3a55 ddbe 5841 90be c693 0f3e
00000030: ea71 8a3f 9972 56bd 76f5 4dbc 1096 863e

prescalers.embedding_16.bias f4 [16]
1.425686 1.673949 -0.95588547 1.2232238 -1.182253 0.09688589 -1.1946514 -0.45447934
-1.1505824 0.17928834 0.21313559 -1.4284768 -0.88659585 -0.643187 -0.72880113 0.8053547
00000000: e17c b63f f643 d63f e9b4 74bf 9992 9c3f
00000010: 1154 97bf 1c6c c63d 56ea 98bf 84b1 e8be
00000020: 4946 93bf 5d97 373e 3740 5a3e 54d8 b6bf
00000030: f2f7 62bf e7a7 24bf b692 3abf ba2b 4e3f

prescalers.embedding_17.weight f4 [16, 1]
0.45260087 1.4051516 -0.08689343 -0.1871754 -0.65364563 1.5541562 -0.7826334 0.2898548
-0.16086112 -0.9699139 0.06840743 0.9827964 -1.1674783 1.2880358 0.10570552 -0.49418947
00000000: 4dbb e73e 02dc b33f 2ff5 b1bd e8aa 3fbe
00000010: 5255 27bf 97ee c63f aa5a 48bf d967 943e
00000020: c7b8 24be 474c 78bf 3219 8c3d 8b98 7b3f
00000030: ee6f 95bf 5bde a43f 237c d83d 6706 fdbe

prescalers.embedding_17.bias f4 [16]
-1.7057757 1.1535434 0.67234063 -1.4522766 1.4179989 1.3609238 -1.5404592 -1.0473102
0.73545974 -0.780946 1.4553648 0.9870483 -0.4399412 1.1083302 -1.718064 -1.1734133
00000000: dc56 dabf 4fa7 933f 841e 2c3f 33e4 b9bf
00000010: fd80 b53f c032 ae3f c42d c5bf 430e 86bf
00000020: 1747 3c3f 14ec 47bf 6549 ba3f 33af 7c3f
00000030: f93f e1be c4dd 8d3f 85e9 dbbf 6832 96bf

prescalers.embedding_18.weight f4 [16, 1]
0.4642439 -0.37654132 -0.0043802997 -0.12413674 0.1608324 -0.2030435 -0.025160262 0.40580514
0.23092972 -0.44483092 -1.1970806 -0.36841968 -0.6623316 0.8363983 -0.48076808 1.1880496
00000000: 60b1 ed3e 06ca c0be 9e88 8fbb 673b febd
00000010: 40b1 243e a3ea 4fbe e51c cebc b1c5 cf3e
00000020: d778 6c3e e1c0 e3be f039 99bf 81a1 bcbe
00000030: 908e 29bf 331e 563f 3c27 f6be 0212 983f

prescalers.embedding_18.bias f4 [16]
0.2257133 0.9770052 -0.3785167 1.1715028 -0.29946184 0.19638164 0.7218034 -0.14079933
0.6366541 0.8184278 1.3625585 1.5696691 0.6221635 -1.2979428 -0.22347069 -1.075888
00000000: 6321 673e 031d 7a3f f1cc c1be cef3 953f
00000010: 1053 99be 4518 493e 1cc8 383f b32d 10be
00000020: c3fb 223f 7c84 513f 5168 ae3f ebea c83f
00000030: 1b46 1f3f fd22 a6bf 80d5 64be b3b6 89bf

prescalers.embedding_19.weight f4 [16, 1]
0.9242786 -0.4195504 0.3951777 1.5750821 -0.40546727 -0.9816917 -0.20368414 0.44170764
0.64569134 1.2449775 -0.24726582 0.90004665 -0.54174876 0.22391237 0.087587886 0.5867112
00000000: 869d 6c3f 4fcf d6be bb54 ca3e 4a9c c93f
00000010: 6899 cfbe 2650 7bbf 9392 50be 8127 e23e
00000020: 074c 253f 6c5b 9f3f 4033 7dbe 7569 663f
00000030: 0cb0 0abf 4949 653e 4761 b33d b532 163f

prescalers.embedding_19.bias f4 [16]
-0.5519546 -1.3617126 -0.26344037 -1.2832463 0.8939892 1.0026768 -1.2511833 0.31805378
-0.95659196 -0.83769983 -0.0014906705 -0.6547018 0.5068306 -1.0585428 1.2976797 -1.0976053
00000000: e64c 0dbf 994c aebf a8e1 86be 6a41 a4bf
00000010: 7adc 643f b757 803f c626 a0bf f2d7 a23e
00000020: 36e3 74bf 7f73 56bf 9a62 c3ba 8a9a 27bf
00000030: a6bf 013f 557e 87bf 5e1a a63f 557e 8cbf

prescalers.embedding_20.weight f4 [16, 1]
0.38706142 1.2671007 1.6073432 -0.38063046 -0.6593038 -0.036276225 -0.05739643 0.9586573
0.042997487 -0.7832508 -0.3621976 -1.3868779 -0.063686855 0.7568952 0.5614853 -0.6516613
00000000: ea2c c63e 5b30 a23f 6cbd cd3f ffe1 c2be
00000010: 22c8 28bf 6196 14bd 8518 6bbd 916a 753f
00000020: 221e 303d 2083 48bf f771 b9be 3785 b1bf
00000030: 416e 82bd e2c3 413f 80bd 0f3f 46d3 26bf

prescalers.embedding_20.bias f4 [16]
-1.1589028 -1.0660803 -1.1695697 0.61348635 0.6515618 -1.3659567 -0.90123487 -0.5876025
-1.0284629 0.47684816 -0.49664104 1.2899874 1.1595317 -0.8642821 0.042609718 1.0019096
00000000: ed56 94bf 5275 88bf 76b4 95bf 710d 1d3f
00000010: c1cc 263f abd7 aebf 54b7 66bf 1e6d 16bf
00000020: aca4 83bf 7125 f43e bc47 febe 4f1e a53f
00000030: 896b 943f 9741 5dbf 8787 2e3d 933e 803f

prescalers.embedding_21.weight f4 [16, 1]
0.7866022 -0.06308527 0.31235224 -0.59751827 -0.105240315 0.7045239 0.022008574 1.2244408
0.27807894 0.33863193 -1.1106286 0.11362169 -0.038621027 -0.1916717 1.57886 0.9971237
00000000: c35e 493f da32 81bd a2ec 9f3e f5f6 18bf
00000010: 3c88 d7bd ae5b 343f 534b b43c 7aba 9c3f
00000020: 5d60 8e3e 2a61 ad3e 1429 8ebf 7db2 e83d
00000030: 1531 1ebd 9645 44be 1618 ca3f 8043 7f3f

prescalers.embedding_21.bias f4 [16]
1.3368124 1.6298705 -1.2325203 -0.14906652 1.3284894 1.1066194 0.6112211 0.47521713
-2.0656378 1.1235284 -0.35315105 0.58151835 0.5808104 -1.2868515 1.4485488 0.25778526
00000000: ab1c ab3f 999f d03f 3ac3 9dbf e5a4 18be
00000010: f10b aa3f b4a5 8d3f fc78 1c3f a94f f33e
00000020: 6933 04c0 c7cf 8f3f 37d0 b4be 63de 143f
00000030: feaf 143f 8db7 a4bf 0c6a b93f 6efc 833e

prescalers.embedding_22.weight f4 [16, 1]
-0.3716365 0.30067366 -0.010737167 0.121982634 -0.4653698 0.45205653 0.72376543 1.3036437
0.25292176 -0.10804205 -0.9300096 -0.83937496 0.86005694 -0.5096684 -0.14229752 0.28539544
00000000: 2447 bebe e6f1 993e f1ea 2fbc 08d2 f93d
00000010: f344 eebe f473 e73e b148 393f ccdd a63f
00000020: f67e 813e 2645 ddbd 1c15 6ebf 47e1 56bf
00000030: b12c 5c3f a179 02bf 71b6 11be 5a1f 923e

prescalers.embedding_22.bias f4 [16]
-1.3865143 1.2581086 -0.6159829 0.9993728 -1.1876544 -1.4743766 1.195422 0.36966002
0.42249385 1.4033387 -0.058214836 -1.0781056 1.4148679 0.89258575 1.3856846 0.99775285
00000000: 4d79 b1bf b409 a13f 0eb1 1dbf e5d6 7f3f
00000010: 0f05 98bf 5fb8 bcbf 9703 993f 1444 bd3e
00000020: 1d51 d83e 9aa0 b33f ae72 6ebd 5dff 89bf
00000030: 641a b53f 8080 643f 1d5e b13f bb6c 7f3f

prescalers.embedding_23.weight f4 [16, 1]
-0.7711425 0.062486626 -0.39698833 1.5331991 0.27932036 0.44464234 1.0328002 1.7306749
-0.70228803 1.2804328 -0.42284983 0.010694744 1.8537811 0.9968616 -0.7606519 0.40057588
00000000: 9869 45bf faf1 7f3d 0e42 cbbe de3f c43f
00000010: 1403 8f3e 29a8 e33e cc32 843f c186 dd3f
00000020: 26c9 33bf 39e5 a33f c67f d8be 0239 2f3c
00000030: b348 ed3f 5232 7f3f 15ba 42bf 4818 cd3e

prescalers.embedding_23.bias f4 [16]
-1.0667962 -1.3964916 0.1827306 1.1523489 1.5756788 0.09180142 1.6448166 1.324553
-1.229392 1.3568274 -1.2296205 0.26652482 1.1175835 0.79498863 -0.9210002 1.3703722
00000000: c78c 88bf 3dc0 b2bf bb1d 3b3e 2b80 933f
00000010: d8af c93f 6202 bc3d 5a89 d23f f48a a93f
00000020: b85c 9dbf 85ac ad3f 3464 9dbf f175 883e
00000030: fa0c 8f3f 6084 4b3f abc6 6bbf 5b68 af3f

prescalers.embedding_24.weight f4 [16, 1]
1.1988835 0.39208928 0.5361568 -0.70308274 -0.7547568 1.027767 -0.85831946 0.4077315
0.7758518 -0.5322048 0.3635237 -1.1671971 -0.45225084 -0.28454646 0.018208586 -0.9406285
00000000: 0475 993f edbf c83e 9241 093f 3bfd 33bf
00000010: be37 41bf de8d 833f d3ba 5bbf 2fc2 d03e
00000020: 399e 463f 933e 08bf c71f ba3e b766 95bf
00000030: 6c8d e7be 13b0 91be 2c2a 953c 08cd 70bf

prescalers.embedding_24.bias f4 [16]
0.9355187 1.8744868 1.4647018 -0.33143008 -0.22901714 0.16369043 -0.34553438 0.9079846
0.43604258 0.8985109 0.49333572 -1.2479632 0.20242177 1.2490386 -1.8103424 -1.2973112
00000000: 277e 6f3f 2fef ef3f 597b bb3f 34b1 a9be
00000010: 7883 6abe 779e 273e e2e9 b0be ae71 683f
00000020: f940 df3e cf04 663f 8096 fc3e 42bd 9fbf
00000030: a747 4f3e 7fe0 9f3f 4db9 e7bf 4b0e a6bf

prescalers.embedding_25.weight f4 [16, 1]
0.25638726 0.005999579 -1.4842774 -1.3346722 0.901221 -1.4391103 -0.5193113 -0.26932436
0.24766295 0.4762635 -0.048832897 0.47626126 0.26629928 -1.4972484 -0.30974072 0.25026947
00000000: 3145 833e 1e98 c43b cdfc bdbf 8ad6 aabf
00000010: 6bb6 663f c434 b8bf 96f1 04bf e2e4 89be
00000020: 5b9b 7d3e cfd8 f33e 0105 48bd 84d8 f33e
00000030: 6158 883e d6a5 bfbf 5696 9ebe 5223 803e

prescalers.embedding_25.bias f4 [16]
-1.096482 0.82139295 -0.6555052 -1.1516892 0.67983145 -1.2750921 -0.10657341 0.18880586
-1.547004 0.6087102 -0.9462423 0.8681478 -1.4489253 -1.0868826 0.1671294 1.057411
00000000: 8659 8cbf cf46 523f 30cf 27bf 8d6a 93bf
00000010: 6f09 2e3f 3836 a3bf 2943 dabd 5356 413e
00000020: 3a04 c6bf 6fd4 1b3f ef3c 72bf ef3e 5e3f
00000030: 6276 b9bf f81e 8bbf f823 2b3e 3e59 873f

prescalers.embedding_26.weight f4 [16, 1]
-1.1142715 0.004188894 -0.06551348 -1.0079724 0.2569929 -0.43771937 0.14648592 0.7659101
0.73458207 0.6571585 -1.0428399 -0.4267269 -0.23249105 -0.18071052 -0.29193315 0.96877694
00000000: 73a0 8ebf fd42 893b ee2b 86bd 3d05 81bf
00000010: 9394 833e c11c e0be 6800 163e af12 443f
00000020: 920d 3c3f 8a3b 283f c77b 85bf f37b dabe
00000030: 2212 6ebe 2e0c 39be 4378 95be c401 783f

prescalers.embedding_26.bias f4 [16]
0.26925302 -1.3858999 0.30840394 1.1184919 -1.3336962 1.0784497 -0.015181107 -0.99592644
-0.49864918 -0.94802386 1.5380833 1.0627955 -0.7772037 -1.630413 0.7880017 -0.4659076
00000000: 88db 893e 2b65 b1bf 1fe7 9d3e be2a 8f3f
00000010: 8fb6 aabf a40a 8a3f 2eba 78bc 09f5 7ebf
00000020: f24e ffbe b1b1 72bf eadf c43f af09 883f
00000030: d2f6 46bf 60b1 d0bf 7bba 493f 718b eebe

prescalers.embedding_27.weight f4 [16, 1]
0.09683493 -0.16232663 -0.664996 -1.9571475 1.2613546 -1.1531861 -1.3943104 0.9350189
0.83947104 0.8111372 0.6406522 0.98224187 -0.50612307 0.10964073 0.8563462 -0.6053628
00000000: 6451 c63d f438 26be 2e3d 2abf cf83 fabf
00000010: 1174 a13f 9a9b 93bf c378 b2bf 665d 6f3f
00000020: 93e7 563f b0a6 4f3f c801 243f 3474 7b3f
00000030: 4891 01bf 528b e03d 8139 5b3f 0ef9 1abf

prescalers.embedding_27.bias f4 [16]
1.3313634 -1.6880285 -1.5380856 -0.8914245 0.7079359 -0.50531745 -0.88407725 1.7224586
-0.20094308 1.5148481 -0.11144888 1.1257054 -1.2246926 1.0121729 0.42873222 -1.3258928
00000000: 1e6a aa3f 5111 d8bf fddf c4bf 6534 64bf
00000010: 4a3b 353f 7c5c 01bf e352 62bf 8679 dc3f
00000020: 06c4 4dbe 8be6 c13f 4f3f e4bd 1d17 903f
00000030: bac2 9cbf e28e 813f ca82 db3e dbb6 a9bf

prescalers.embedding_28.weight f4 [16, 1]
-0.4086671 0.013781987 1.0822222 1.4672538 0.49884462 -0.3620313 -1.804198 -1.1129122
0.0903218 0.12052843 -0.4863134 -1.1498232 0.014547699 0.70327944 0.7496074 0.42129052
00000000: d03c d1be d8cd 613c 4286 8a3f f9ce bb3f
00000010: 9068 ff3e 2b5c b9be f6ef e6bf e873 8ebf
00000020: a3fa b83d 9cd7 f63d 12fe f8be 682d 93bf
00000030: 7959 6e3c 1f0a 343f 45e6 3f3f 64b3 d73e

prescalers.embedding_28.bias f4 [16]
1.1960943 -0.7551334 -0.71346056 -1.2225451 -1.1739873 -1.9002793 1.043767 1.1305227
-1.6296756 1.4931666 0.71231055 1.1374265 -1.0876254 -0.1585908 -1.2151959 -1.4306952
00000000: 9e19 993f 6c50 41bf 5aa5 36bf 5c7c 9cbf
00000010: 3745 96bf 5a3c f3bf 289a 853f f8b4 903f
00000020: 3699 d0bf 1520 bf3f fc59 363f 3197 913f
00000030: 4f37 8bbf a065 22be 8a8b 9bbf 0521 b7bf

prescalers.embedding_29.weight f4 [16, 1]
1.1491225 0.16349015 -1.0993929 -0.7099898 -0.047877897 -0.6576439 -0.38357514 -0.49601734
-0.2051296 0.46011746 1.6367211 1.488883 -1.4322364 -0.30728197 -0.107324556 0.47549295
00000000: 7216 933f f669 273e e8b8 8cbf e4c1 35bf
00000010: 9d1b 44bd 5a5b 28bf f663 c4be fcf5 fdbe
00000020: 7e0d 52be 8494 eb3e 1480 d13f b893 be3f
00000030: 8653 b7bf 1054 9dbe facc dbbd d073 f33e

prescalers.embedding_29.bias f4 [16]
0.9206119 1.0438331 -0.8064341 -0.44113168 1.2235633 -1.0907632 0.6514849 -0.4843946
-0.099266075 0.35084042 0.9553242 0.3375091 -1.0653071 0.9060439 0.1171866 0.43535683
00000000: 39ad 6b3f 539c 853f 7772 4ebf 03dc e1be
00000010: b99d 9c3f 219e 8bbf b7c7 263f 9202 f8be
00000020: 034c cbbd 5ba1 b33e 2090 743f fecd ac3e
00000030: fc5b 88bf 7ef2 673f 87ff ef3d 17e7 de3e

prescalers.embedding_30.weight f4 [16, 1]
-0.6783011 -0.3332178 0.80605876 0.35017002 0.43064654 1.8885896 -0.4313952 -0.8447519
-0.24429023 -0.326521 1.1751858 1.4700143 0.5738739 -1.5710658 -0.0045042126 -1.1246127
00000000: 24a5 2dbf 869b aabe de59 4e3f 7c49 b33e
00000010: b47d dc3e 4ebd f13f d5df dcbe a941 58bf
00000020: 3827 7abe c32d a7be 7d6c 963f 6e29 bc3f
00000030: 66e9 123f af18 c9bf 1398 93bb 4ff3 8fbf

prescalers.embedding_30.bias f4 [16]
-0.90070945 -0.9006021 0.37450308 0.60949135 1.4639328 0.9094144 0.015105768 -0.65310085
-1.0871595 -1.2245995 1.1439111 0.9298761 1.0456228 -0.4094213 0.82099366 -0.34028098
00000000: e594 66bf dc8d 66bf debe bf3e a007 1c3f
00000010: 2662 bb3f 62cf 683f 2f7e 773c 9e31 27bf
00000020: 0b28 8bbf adbf 9cbf ae6b 923f 5c0c 6e3f
00000030: f8d6 853f ab9f d1be a42c 523f 4f39 aebe

prescalers.embedding_31.weight f4 [16, 1]
-0.7708106 -0.9141122 -0.26048592 -0.6252238 -1.4506034 -0.13960454 -0.16036929 1.1296144
0.7834634 1.1646372 -0.7790181 -0.11567463 -0.5079025 0.1300089 -1.4609479 -1.2872648
00000000: d853 45bf 4203 6abf 695e 85be ab0e 20bf
00000010: 5fad b9bf 7ef4 0ebe d937 24be 3497 903f
00000020: 0f91 483f d512 953f bb6d 47bf d2e6 ecbd
00000030: e605 02bf 0e21 053e 5700 bbbf 18c5 a4bf

prescalers.embedding_31.bias f4 [16]
-1.1893612 -1.5412198 -1.6223924 -0.10484155 -1.0010036 -0.7861324 -0.7240732 1.727722
0.4002961 0.5945117 -1.7179779 -0.85990524 -0.30926737 0.4455525 -0.88392085 -1.2008086
00000000: fd3c 98bf b146 c5bf 8eaa cfbf 2bb7 d6bd
00000010: e320 80bf f93f 49bf dc5c 39bf ff25 dd3f
00000020: 9cf3 cc3e eb31 183f b3e6 dbbf c022 5cbf
00000030: 4b58 9ebe 751f e43e a348 62bf 19b4 99bf

prescalers.embedding_32.weight f4 [16, 1]
0.7845063 0.53265536 -0.4100067 -0.65882754 0.48690882 1.3351663 0.4449894 0.7580139
0.4146036 -0.4390083 1.0958579 -0.75141966 0.40929678 -0.887855 -0.13490117 -1.2808245
00000000: 68d5 483f 1a5c 083f 66ec d1be eca8 28bf
00000010: 1d4c f93e bbe6 aa3f a7d5 e33e 330d 423f
00000020: ec46 d43e b2c5 e0be 1245 8c3f 0a5d 40bf
00000030: 598f d13e 774a 63bf 8823 0abe 0ff2 a3bf

prescalers.embedding_32.bias f4 [16]
0.31435764 0.6584493 -0.174903 -0.29301786 0.5784318 -0.5527097 -0.56316644 0.7957222
-1.161509 -0.71326774 -1.0096384 -0.5568362 0.90910256 0.13441767 0.086606696 -0.23584594
00000000: 7cf3 a03e 2290 283f c619 33be 7006 96be
00000010: 1b14 143f 627e 0dbf ad2b 10bf 73b4 4b3f
00000020: 54ac 94bf b798 36bf d53b 81bf d18c 0ebf
00000030: f2ba 683f c9a4 093e da5e b13d 9981 71be

static_variable_selection.flattened_grn.resample_norm.mask f4 [6]
0.630192 -0.81965214 -0.20494576 -1.2401553 -0.11582424 1.4668397
00000000: 4354 213f b9d4 51bf 4ddd 51be 69bd 9ebf
00000010: 4235 edbd 67c1 bb3f

static_variable_selection.flattened_grn.resample_norm.norm.weight f4 [6]
2.7333639 -0.5786063 1.2127295 1.0879484 1.3619099 2.025752
00000000: 6fef 2e40 8b1f 14bf b83a 9b3f e541 8b3f
00000010: 1053 ae3f eca5 0140

static_variable_selection.flattened_grn.resample_norm.norm.bias f4 [6]
-2.0791507 1.40807 -0.30892906 -0.3728179 -0.72411287 1.8955915
00000000: ce10 05c0 a33b b43f f32b 9ebe fde1 bebe
00000010: 765f 39bf bea2 f23f

static_variable_selection.flattened_grn.fc1.weight f4 [6, 92]
1.0352343 -0.35427955 -0.3582101 -0.66346043 -1.5010098 0.5911424 -0.82103074 -0.7161066
-2.2810605 0.5170893 1.2857947 -1.177393 0.65630627 -0.5828002 0.40638438 0.66239643
0.8993908 0.30234322 0.10518184 0.45131004 0.5915432 -0.60264796 0.2743101 0.19879104
0.7152042 -0.45125157 0.49428636 -0.7024912 1.581532 0.50281066 -0.05710703 0.036786024
-0.93568027 -0.42294094 0.047268923 0.95889413 -0.22627819 -1.2560289 -0.9774282 1.9940591
0.22308001 -0.27205363 -0.9372108 -0.16141231 0.71507525 1.6601245 -2.3491995 -1.6867467
0.33927378 -0.5920715 -0.07369975 1.9156586 0.33220237 -1.0372583 0.9172217 -0.030666808
1.8928304 -0.4724577 1.0709475 -1.7248327 0.12308958 0.58144236 0.031296816 -0.11623015
0.015882742 1.3320462 1.3602754 -0.028645242 -0.4202509 -0.3755209 -0.70423627 -0.65861803
1.0493119 1.1826041 0.94428635 1.667068 0.42980608 -1.106164 -0.49980152 -0.2331442
0.06829753 1.413121 -0.932532 0.9540541 -0.47379386 0.63917494 0.41502756 -0.8307315
0.607686 0.01716111 0.8973431 1.2612865 0.18578649 0.051895734 0.40734452 -0.52967936
-0.2858123 0.9041218 0.2702603 -0.66774136 0.96360946 0.6518402 -1.222321 1.0214365
-1.1722666 -0.8353492 0.5324593 -1.2489235 1.2392522 1.043825 -1.2844089 0.94642246
1.1031107 -0.38620493 0.88288397 0.47016764 -1.371733 0.67731255 0.78924215 -0.46404374
-0.45525372 0.8517643 -0.4130739 -0.36720052 -1.0999445 -0.58713037 -0.4228224 0.95023227
0.082169004 -0.5063148 -0.99352837 -0.62767553 1.2164618 -1.4614497 0.2126276 0.33803806
-0.51033723 -0.23875585 -0.13628604 0.49133998 1.777691 0.97479117 0.34002987 -0.71659094
-0.052920237 -1.0433086 1.3246685 1.2279859 -0.5251713 2.4615269 1.1042373 0.40994266
-0.63334584 1.269709 -0.11976873 -1.4614253 -0.08428002 -1.4394845 -0.8915256 1.2988961
-1.7644315 -1.6470916 0.6156581 -0.19474567 0.71698093 -0.55710757 1.029917 -1.5195293
-1.0012395 1.3701882 -1.2620499 -1.686821 -0.62998104 -0.17599374 1.3002621 -2.3853076
-1.5921243 1.2533011 0.8991489 2.2942288 1.8292743 -1.4517063 -1.6243813 -1.6233039
0.5316391 -2.218802 -0.55841124 -1.521725 0.80490464 -0.29005316 -0.80787635 -1.9782861
1.1374098 0.3841456 0.18421994 0.47498035 -0.82063895 -0.58923054 0.037203975 -0.64166045
0.8923217 0.78979796 -0.5923999 0.054708906 0.34727374 0.38009965 -0.123122334 -0.13287278
-1.0289781 0.56035906 0.36231327 0.06640531 0.21460237 0.69317096 0.093939744 0.22119951
-0.38624486 0.370169 -1.2317424 -0.2970806 1.1829501 -0.52006066 -0.3044305 -0.42702338
0.93357235 -1.1881363 -0.018984852 -0.2087582 -0.59533435 -0.023451637 -0.50960326 0.024499035
0.9788293 0.9965351 -0.41474727 0.171919 1.2351468 -0.8624083 0.30221307 0.46915007
-0.24616624 1.6350385 0.45817828 0.054029632 -0.7801425 0.89942557 -1.1375682 -0.3729992
0.3681433 -0.6425487 -1.0430324 0.75014955 -0.64055485 -0.6174195 0.4007734 -0.103790194
00000000: 8f82 843f 2164 b5be 5067 b7be 8bd8 29bf
00000010: 1721 c0bf 1c55 173f 122f 52bf c352 37bf
00000020: e5fc 11c0 f75f 043f ec94 a43f d0b4 96bf
00000030: b003 283f 6532 15bf 9d11 d03e d092 293f
00000040: 7a3e 663f bbcc 9a3e 9469 d73d 1c12 e73e
00000050: 606f 173f 2347 1abf 6072 8c3e e18f 4b3e
00000060: 9f17 373f 720a e7be 1a13 fd3e 77d6 33bf
00000070: a46f ca3f 33b8 003f 10e9 69bd f1ac 163d
00000080: be88 6fbf b78b d8be 0f9d 413d 167a 753f
00000090: 78b5 67be 8ec5 a0bf bc38 7abf 543d ff3f
000000a0: 166f 643e 9d4a 8bbe 0ced 6fbf 4549 25be
000000b0: 2c0f 373f f67e d43f 4959 16c0 51e7 d7bf
000000c0: 4bb5 ad3e ff91 17bf e5ef 96bd 4d34 f53f
000000d0: 6e16 aa3e e1c4 84bf 0bcf 6a3f f538 fbbc
000000e0: 4448 f23f fae5 f1be cf14 893f 51c7 dcbf
000000f0: 6416 fc3d 68d9 143f 1731 003d 130a eebd
00000100: 861c 823c 7d80 aa3f 811d ae3f 6da9 eabc
00000110: 202b d7be 4744 c0be d448 34bf 319b 28bf
00000120: da4f 863f 925f 973f c0bc 713f 7c62 d53f
00000130: 8b0f dc3e c896 8dbf fce5 ffbe 5abd 6ebe
00000140: 93df 8b3d 26e1 b43f 6bba 6ebf e43c 743f
00000150: 1c95 f2be f8a0 233f 7e7e d43e d2aa 54bf
00000160: 4f91 1b3f 7595 8c3c 47b8 653f d671 a13f
00000170: d03e 3e3e 9f90 543d 768f d03e 1199 07bf
00000180: fd55 92be 8774 673f 8f5f 8a3e 19f1 2abf
00000190: 1caf 763f 00df 263f 0475 9cbf 6ebe 823f
000001a0: d50c 96bf 72d9 55bf 414f 083f badc 9fbf
000001b0: d19f 9e3f 0f9c 853f 8367 a4bf be48 723f
000001c0: bb32 8d3f a7bc c5be af04 623f d0b9 f03e
000001d0: f294 afbf 5b64 2d3f c60b 4a3f 2497 edbe
000001e0: 0417 e9be 3a0d 5a3f 6c7e d3be b501 bcbe
000001f0: fbca 8cbf 2d4e 16bf 2d7c d8be 6c42 733f
00000200: 3948 a83d d99d 01bf e057 7ebf 58af 20bf
00000210: 05b5 9b3f c910 bbbf 0dbb 593e 5313 ad3e
00000220: 76a5 02bf 6a7c 74be 918e 0bbe ea90 fb3e
00000230: 618b e33f ea8b 793f 6518 ae3e 8172 37bf
00000240: e4c2 58bd 238b 85bf bd8e a93f a42e 9d3f
00000250: a071 06bf a889 1d40 a657 8d3f 01e4 d13e
00000260: f422 22bf d385 a23f 4f49 f5bd fc0f bbbf
00000270: 019b acbd 0741 b8bf 063b 64bf 3a42 a63f
00000280: e4d8 e1bf e6d3 d2bf c59b 1d3f 696b 47be
00000290: 108c 373f 9a9e 0ebf 52d4 833f f07f c2bf
000002a0: 9e28 80bf 5462 af3f da8a a1bf c0e9 d7bf
000002b0: 7046 21bf b437 34be fd6e a63f e1a8 18c0
000002c0: bbca cbbf 2c6c a03f 9f2e 663f a5d4 1240
000002d0: a925 ea3f 83d1 b9bf baeb cfbf 6cc8 cfbf
000002e0: 8019 083f da00 0ec0 0af4 0ebf e3c7 c2bf
000002f0: 3b0e 4e3f d981 94be fcd0 4ebf 7b38 fdbf
00000300: a596 913f bbae c43e 27a4 3c3e a030 f33e
00000310: 6515 52bf d0d7 16bf 3263 183d dc43 24bf
00000320: 326f 643f 3330 4a3f 85a7 17bf 7216 603d
00000330: ddcd b13e 6c9c c23e 9027 fcbd cd0f 08be
00000340: 8eb5 83bf b173 0f3f 2081 b93e 82ff 873d
00000350: b9c0 5b3e a773 313f 7b63 c03d 2082 623e
00000360: e3c1 c5be cb86 bd3e bca9 9dbf f31a 98be
00000370: e96a 973f b222 05bf 51de 9bbe cfa2 dabe
00000380: 99fe 6e3f da14 98bf 1f86 9bbc b6c4 55be
00000390: d567 18bf a61d c0bc 5c75 02bf 33b2 c83c
000003a0: 8f94 7a3f ed1c 7f3f c159 d4be 890b 303e
000003b0: 4a19 9e3f cac6 5cbf acbb 9a3e 7034 f03e
000003c0: 0113 7cbe f148 d13f 5896 ea3e 2d4e 5d3d
000003d0: 6bb7 47bf c140 663f d69b 91bf c0f9 bebe
000003e0: 477d bc3e 127e 24bf 1682 85bf cd09 403f
000003f0: 67fb 23bf 340f 1ebf 2c32 cd3e f48f d4bd

static_variable_selection.flattened_grn.fc1.bias f4 [6]
-0.42637473 0.4199126 -0.11236683 -0.046011534 1.6308095 -1.4839383
00000000: ca4d dabe c9fe d63e 9520 e6bd 9776 3cbd
00000010: 5ebe d03f b1f1 bdbf

static_variable_selection.flattened_grn.fc2.weight f4 [6, 6]
-0.95971 1.2884979 0.47343928 0.72664857 -1.7774976 -0.9338844 -1.9347571 -0.8901112
-1.7938708 -2.489799 -0.4662238 -0.75549126 1.3880944 -0.4904069 0.8284134 0.6390988
-0.94275445 -0.45652774 -1.1728193 -0.9120068 0.45291597 0.9866088 -0.24588016 -0.53525037
0.6946544 -1.5456072 -0.39795268 -1.3345041 -2.6207545 -0.38494658 1.4505771 -0.6676658
-2.1131868 -0.997211 0.14639604 0.8355419
00000000: 8eaf 75bf 80ed a43f a266 f23e a405 3a3f
00000010: 0b85 e3bf 0c13 6fbf 1fa6 f7bf 54de 63bf
00000020: 8f9d e5bf de58 1fc0 e3b4 eebe e067 41bf
00000030: 14ad b13f 9d16 fbbe e712 543f fb9b 233f
00000040: 5b58 71bf 01be e9be f11e 96bf 4779 69bf
00000050: 9ae4 e73e 6592 7c3f 02c8 7bbe 2b06 09bf
00000060: dfd4 313f 75d6 c5bf 74c0 cbbe 08d1 aabf
00000070: 71ba 27c0 b817 c5be 83ac b93f 25ec 2abf
00000080: 743e 07c0 3849 7fbf d8e8 153e 13e6 553f

static_variable_selection.flattened_grn.fc2.bias f4 [6]
-1.2246494 -0.9241572 -0.330368 -0.7352595 -2.1192946 -0.39187607
00000000: 50c1 9cbf 9195 6cbf ff25 a9be f739 3cbf
00000010: 86a2 07c0 fba3 c8be

static_variable_selection.flattened_grn.gate_norm.glu.fc.weight f4 [12, 6]
0.37175858 1.8975024 1.5752115 1.3166848 3.381471 0.53976136 1.1741533 -1.7440497
1.511636 -0.70829284 -2.1014032 -1.3541118 0.13538933 0.780901 -2.018677 -0.26126948
-0.93187106 -1.5047354 0.07562934 -1.1526188 0.7190238 -0.42135677 0.14434382 1.7329198
1.7289283 -0.20745797 0.6997663 1.4263822 -1.4978465 0.26892057 -1.8539002 -0.9907649
-2.698798 -0.0016970315 -1.3332899 0.22379468 0.33737558 0.24483153 -1.8535376 -1.2169318
-1.4195939 -0.7007513 1.8252723 -0.5602799 0.4595348 -0.18381816 -2.3244221 -0.87028116
1.2335515 1.6089821 0.91542584 1.4962769 1.0366415 0.7704687 1.1304722 0.8603337
0.4795552 0.04359288 -0.40790188 1.6873673 -1.0928489 -1.8627069 -0.47668055 -0.8975514
-0.27096513 0.28302506 -0.8613305 0.56351703 2.1808228 -0.0063520325 0.21438326 -0.8420664
00000000: 2457 be3e 5ce1 f23f 88a0 c93f 2189 a83f
00000010: 056a 5840 cd2d 0a3f a84a 963f 053d dfbf
00000020: 4a7d c13f ae52 35bf 647d 06c0 8953 adbf
00000030: 80a3 0a3e 21e9 473f 0132 01c0 1dc5 85be
00000040: 1a8f 6ebf 2b9b c0bf 8ee3 9a3d 0389 93bf
00000050: f211 383f 13bc d7be dece 133e 51d0 dd3f
00000060: 864d dd3f dd6f 54be e223 333f b193 b63f
00000070: 6fb9 bfbf f5af 893e 9a4c edbf c5a2 7dbf
00000080: 1bb9 2cc0 ee6e deba 3ea9 aabf 6f2a 653e
00000090: 7ebc ac3e 1eb5 7a3e b840 edbf 6cc4 9bbf
000000a0: 41b5 b5bf 7064 33bf 86a2 e93f 816e 0fbf
000000b0: 2548 eb3e d43a 3cbe 55c3 14c0 bfca 5ebf
000000c0: 04e5 9d3f 20f3 cd3f 5959 6a3f 0086 bf3f
000000d0: abb0 843f 703d 453f 50b3 903f d43e 5c3f
000000e0: 4288 f53e 738e 323d 84d8 d0be a7fb d73f
000000f0: 79e2 8bbf 2e6d eebf 790f f4be eec5 65bf
00000100: f1bb 8abe a9e8 903e 2880 5cbf a742 103f
00000110: 9a92 0b40 b624 d0bb 4987 5b3e aa91 57bf

static_variable_selection.flattened_grn.gate_norm.glu.fc.bias f4 [12]
-1.9185325 0.7801615 0.058687747 -0.116118826 -0.8047344 0.7709285 0.84979236 0.43691123
-1.4860431 0.22914904 0.99679786 -1.0204952
00000000: 7992 f5bf aab8 473f 9062 703d b5cf edbd
00000010: 1303 4ebf 925b 453f fe8b 593f d4b2 df3e
00000020: a936 bebf 0ca6 6a3e 252e 7f3f 969f 82bf

static_variable_selection.flattened_grn.gate_norm.add_norm.norm.weight f4 [6]
-2.1323984 -0.8844255 1.7765533 0.83480686 0.0018170122 -1.0561845
00000000: 3779 08c0 b669 62bf 1966 e33f e7b5 553f
00000010: d028 ee3a 0e31 87bf

static_variable_selection.flattened_grn.gate_norm.add_norm.norm.bias f4 [6]
2.251622 -0.690054 -0.66664386 -0.6597561 -0.5994721 -0.82878864
00000000: 931a 1040 61a7 30bf 2ca9 2abf c7e5 28bf
00000010: 0177 19bf 7e2b 54bf

static_variable_selection.single_variable_grns.station_loc.mask f4 [32]
0.5386817 0.8316502 1.3603463 3.4000359 -2.6292384 -1.1187823 -0.213652 2.048363
2.5508378 -0.37654915 0.16049765 -1.0085406 -0.25052002 -0.38576344 -0.7143803 -0.9080155
1.2010577 -0.57520217 -0.26592293 2.8481185 -0.54127157 -2.2534125 0.90320235 0.7485698
-2.1052632 -2.21566 3.7123232 0.68302196 -0.8035617 -0.06655126 1.2965294 -1.2278488
00000000: 0be7 093f 07e7 543f d41f ae3f 309a 5940
00000010: 7145 28c0 4234 8fbf 97c7 5abe 6118 0340
00000020: ed40 2340 0dcb c0be 7f59 243e dc17 81bf
00000030: 2944 80be c982 c5be a1e1 36bf b473 68bf
00000040: 42bc 993f 7340 13bf 0d27 88be 9347 3640
00000050: c690 0abf e937 10c0 4538 673f 45a2 3f3f
00000060: a2bc 06c0 60cd 0dc0 b496 6d40 87da 2e3f
00000070: 38b6 4dbf 074c 88bd adf4 a53f 262a 9dbf

static_variable_selection.single_variable_grns.station_loc.norm.weight f4 [32]
2.8584168 2.929241 2.5016794 4.216343 0.8986151 0.7712639 -1.099262 3.777111
4.2396193 -0.5997352 -0.8390058 2.8988585 0.9063321 2.668789 2.3609788 -1.3463347
3.1714432 3.240952 3.4241838 3.797699 -0.28127873 -2.5199847 2.3252902 3.4420843
2.5398812 2.4863882 5.0012608 2.4738617 -0.7589933 2.4042928 1.284482 -0.24626198
00000000: 4df0 3640 af78 3b40 841b 2040 48ec 8640
00000010: a40b 663f 8d71 453f 9eb4 8cbf 30bc 7140
00000020: f6aa 8740 3f88 19bf 16c9 56bf e686 3940
00000030: 6105 683f 70cd 2a40 471a 1740 b254 acbf
00000040: edf8 4a40 c26b 4f40 d425 5b40 800d 7340
00000050: c403 90be 6e47 21c0 8ed1 1440 1c4b 5c40
00000060: 6a8d 2240 fc20 1f40 540a a040 c053 1e40
00000070: 634d 42bf efdf 1940 e869 a43f 1a2c 7cbe

static_variable_selection.single_variable_grns.station_loc.norm.bias f4 [32]
0.4921777 0.20329331 -1.4864459 -2.132982 0.24034402 -0.4894502 1.4288573 -1.1129645
-1.385643 0.14309007 0.22565511 1.4551421 0.19216359 0.88965553 0.8419396 -1.3714226
0.66130894 0.9164727 0.1154745 -1.1883475 0.060477033 -0.30015144 0.40474668 0.70399225
0.56899655 0.8118421 1.4063355 1.6649607 -0.37085786 0.67351997 0.32378602 -0.24892163
00000000: b7fe fb3e 1f2c 503e dc43 bebf c782 08c0
00000010: be1c 763e 3799 fabe cce4 b63f 9f75 8ebf
00000020: c05c b1bf 3486 123e 2212 673e 1942 ba3f
00000030: 88c6 443e 77c0 633f 5b89 573f c78a afbf
00000040: 8b4b 293f f49d 6a3f e57d ec3d c51b 98bf
00000050: c4b6 773d 73ad 99be f53a cf3e d638 343f
00000060: c2a9 113f e2d4 4f3f cd02 b43f 6f1d d53f
00000070: 15e1 bdbe ce6b 2c3f 48c7 a53e 50e5 7ebe

static_variable_selection.single_variable_grns.latitude.resample_norm.mask f4 [32]
-0.20197931 -0.5109606 -0.38220564 0.29335973 0.00015108331 0.004102763 -0.911645 0.19932063
0.29893702 0.17470852 -0.13269565 0.023888236 0.07482259 -0.34113243 -0.26006666 0.07513535
0.5593326 -0.3924911 -0.19011743 -0.29320315 0.19899921 0.216727 0.03189942 0.30909103
-0.1697884 -0.13926393 -0.20068003 -0.4377482 0.066275984 0.5674291 0.4322372 -0.40919867
00000000: aad3 4ebe 50ce 02bf 75b0 c3be 3f33 963e
00000010: 1e6c 1e39 7870 863b 9161 69bf b51a 4c3e
00000020: 460e 993e cae6 323e 5ee1 07be 43b1 c33c
00000030: 963c 993d e9a8 aebe 7527 85be 90e0 993d
00000040: 6c30 0f3f 98f4 c8be 25ae 42be b91e 96be
00000050: 73c6 4b3e afed 5d3e f7a8 023d 2e41 9e3e
00000060: 03dd 2dbe 349b 0ebe 117f 4dbe 8820 e0be
00000070: b4bb 873d 0943 113f 324e dd3e 7d82 d1be

static_variable_selection.single_variable_grns.latitude.resample_norm.norm.weight f4 [32]
1.0558677 0.2865126 0.8532807 1.6322728 1.1660398 1.161185 0.43909562 1.5968739
1.3388093 1.2596174 0.84833854 0.9929416 1.5016505 0.54803056 0.72898376 0.9956178
1.5644536 0.67592067 0.8371434 0.81997097 1.2807866 1.0431229 1.3951102 1.13257
0.6580354 0.93184817 0.7722051 0.47786763 0.974028 1.4783309 1.509211 0.71265686
00000000: ac26 873f c8b1 923e 9b70 5a3f 51ee d03f
00000010: cb40 953f b6a1 943f 24d1 e03e 5d66 cc3f
00000020: 1a5e ab3f 253b a13f b72c 593f 6c31 7e3f
00000030: 1536 c03f bb4b 0c3f ae9e 3a3f cfe0 7e3f
00000040: 0440 c83f 2309 2d3f 084f 563f 9ee9 513f
00000050: d1f0 a33f 0d85 853f f992 b23f 0ef8 903f
00000060: 0275 283f 9a8d 6e3f 3caf 453f 11ab f43e
00000070: e659 793f f239 bd3f d32d c13f ae70 363f
