tft_src/.lr_find_1b162dcb-bf43-42f4-939e-df410326fdfc.ckpt (torch, 671716 bytes, 642 tensors)

prescalers.latitude.weight f4 [8, 1]
00000000: 54d4 413f a8cc 2abf 30d1 473e 80c5 41be
00000010: 164b 03bf 28c0 7fbe c297 143f 24a0 26bf
0.7571461 -0.6671853 0.19513392 -0.18922997 -0.5128645 -0.24975646 0.58044064 -0.65088105

prescalers.latitude.bias f4 [8]
00000000: 602f 4c3f ec3b 953e c6cf 5b3f f8eb c03e
00000010: 7897 6cbf 3233 5d3f f070 8cbd 300f 673f
0.7975979 0.2914728 0.8586391 0.3768003 -0.9241862 0.8640624 -0.068574786 0.9025755

prescalers.longitude.weight f4 [8, 1]
00000000: cce9 bd3e b8a7 553f 40f0 273e 001c 143c
00000010: c829 583f d286 38bf ea4d 3f3f d854 783e
0.37092435 0.83459044 0.16400242 0.009039879 0.84438753 -0.7208072 0.7472826 0.24251115

prescalers.longitude.bias f4 [8]
00000000: 80b4 203f d67c 6c3f 1acd 2cbf 5032 eb3e
00000010: b41c 343f 6ceb 75bf 68c0 50bf 8009 d33e
0.6277542 0.92377985 -0.6750046 0.45936823 0.703563 -0.9606235 -0.8154359 0.41218185

prescalers.encoder_length.weight f4 [8, 1]
00000000: 484a 62be acaf fd3e 6478 b8be 3c5d 423f
00000010: ca9b 3fbf dae1 423f 9858 f4be d471 593f
-0.22098649 0.4954809 -0.3602935 0.75923514 -0.7484709 0.7612587 -0.47723842 0.8493931

prescalers.encoder_length.bias f4 [8]
00000000: 3890 80be 8008 613e 4005 bf3c dc32 06bf
00000010: 36dd 763f 0853 45be 0089 3d3e 605d b8be
-0.2511003 0.21975899 0.023317933 -0.52421355 0.9643129 -0.19269955 0.18509293 -0.3600874

prescalers.PM25_center.weight f4 [8, 1]
00000000: b0fe a93d 4832 983e 189f f5be 6c3c 183f
00000010: 0068 53ba c474 6f3f 448c b43e 8004 093d
0.08300531 0.29725862 -0.4797294 0.59467196 -0.00080645084 0.93537545 0.35263264 0.033451557

prescalers.PM25_center.bias f4 [8]
00000000: f07d 723f a8f6 e5be e0aa 7cbf 901a d3be
00000010: a8f4 323e d0db d7be 002a fd3b c0a3 fa3d
0.94723415 -0.44914746 -0.98698235 -0.41231203 0.17476141 -0.4215989 0.007725954 0.12238264

prescalers.PM25_scale.weight f4 [8, 1]
00000000: 08a4 ad3e 5848 d93e 7249 57bf 2479 d23e
00000010: f63c 2cbf 7432 b43e 9eee 3c3f d287 72bf
0.33914208 0.42438006 -0.84096444 0.41108048 -0.6728052 0.35194743 0.738016 -0.94738495

prescalers.PM25_scale.bias f4 [8]
00000000: ace1 f1be 8482 e7be fcbb 74bf 4af3 403f
00000010: 728b 3dbf 8086 073e 98bf 6b3e 50b8 893d
-0.47242486 -0.45216763 -0.9559934 0.7537123 -0.740409 0.13234901 0.23022306 0.06724608

prescalers.hour.weight f4 [8, 1]
00000000: 5ee9 6abf 4457 1cbf f091 fd3d 6edf 643f
00000010: 10e4 c83d 00c8 fabe 64aa 85be 30e5 353f
-0.9176234 -0.61070657 0.12381351 0.89403427 0.098091245 -0.48980713 -0.2610656 0.7105284

prescalers.hour.bias f4 [8]
00000000: 3860 8bbe 38e5 683f 6cfd 753f b28e 3fbf
00000010: b839 f4be 3c06 193f 0acb 16bf 58b2 63bf
-0.27221847 0.9097476 0.96089816 -0.7482711 -0.47700286 0.5977514 -0.58903563 -0.88944006

prescalers.dayofmonth.weight f4 [8, 1]
00000000: deb8 103f 00db efbc b499 273f a4f7 83be
00000010: 5efe 593f 7e79 3abf 28da 01be 7039 2bbf
0.56532085 -0.029279232 0.6546891 -0.25774872 0.8515376 -0.7284163 -0.12680876 -0.6688452

prescalers.dayofmonth.bias f4 [8]
00000000: 00b4 0abd 78b4 b8be 602a c8be 8e3e 493f
00000010: 3021 c9be 02b7 67bf 5406 25bf baa9 4f3f
-0.033863068 -0.36075187 -0.3909483 0.78611076 -0.39283133 -0.9051362 -0.6446278 0.8111836

prescalers.dayofweek.weight f4 [8, 1]
00000000: dae3 7d3f 7427 f7be 8067 1bbd 007a e6bb
00000010: 286e 33bf d4bb 173f 5086 e3bd 589f 40bf
0.991758 -0.48272288 -0.037940502 -0.0070335865 -0.7008996 0.5927098 -0.111096025 -0.7524314

prescalers.dayofweek.bias f4 [8]
00000000: 5cdd a8be 2095 423f f899 6ebf 5a3a 353f
00000010: b22d 66bf d09d c83e 90b0 6cbe 2845 ecbe
-0.32981384 0.76008797 -0.9320369 0.7079216 -0.89913476 0.391829 -0.23114228 -0.46146512

prescalers.dayofyear.weight f4 [8, 1]
00000000: 0aed 17bf 88e0 4cbf 96b4 5a3f 4283 793f
00000010: 4820 393f 1cdc babe 126f 453f 2c6b bd3e
-0.5934607 -0.8003011 0.854318 0.9746591 0.7231488 -0.36496055 0.77122605 0.36995828

prescalers.dayofyear.bias f4 [8]
00000000: ca2d 373f d898 653f c2ca 693f 3a9c 0ebf
00000010: a48f a2be 48fe 17be 18ce 28bf dc8e 3bbf
0.71554244 0.89686346 0.9132501 -0.5570713 -0.31750214 -0.14843094 -0.65939474 -0.7326486

prescalers.weekofyear.weight f4 [8, 1]
00000000: 5c16 3c3f 0c01 44bf 4013 bc3d 80f8 b6bc
00000010: 223a 593f b4b3 4e3f 403c 6e3f c4aa 033f
0.7347162 -0.765641 0.09183359 -0.02233529 0.8485433 0.80742955 0.93060684 0.5143244

prescalers.weekofyear.bias f4 [8]
00000000: a6b7 6a3f 003a 833c f0d7 c1bd c8a4 edbe
00000010: f498 d2be a837 36be a043 66bf 983b 623f
0.91686475 0.016018867 -0.09465015 -0.4641478 -0.4113232 -0.17794669 -0.8994694 0.8837218

prescalers.month.weight f4 [8, 1]
00000000: f01b 3e3e 306c f53d 8c15 47bf c06a 82bd
00000010: a8fc 313f 1cf4 bb3e 5882 3abf 80c5 eebe
0.18565345 0.11983526 -0.7776725 -0.06368017 0.6952615 0.36709678 -0.7285514 -0.46635056

prescalers.month.bias f4 [8]
00000000: 242b 233f 2c34 cdbe 98f6 4b3f 0a40 24bf
00000010: 8e7b 77bf b488 4fbf f86f 2dbe 5871 2cbe
0.637377 -0.40078866 0.7967315 -0.64160216 -0.96672904 -0.8106797 -0.16937244 -0.16840112

prescalers.quarter.weight f4 [8, 1]
00000000: cc50 ee3e 5a7b 5fbf 76d5 423f c82e 993e
00000010: 548e edbe 4449 c83e 783d 37be ee99 70bf
0.46546018 -0.87297595 0.76106966 0.29918504 -0.4639765 0.39118397 -0.17894542 -0.9398488

prescalers.quarter.bias f4 [8]
00000000: 2801 a53e 00b5 7f3c e0d7 41be d0aa 36bf
00000010: e037 6dbe 7a50 6fbf 505f 7bbe 1224 3f3f
0.32227445 0.015607119 -0.18930006 -0.7135439 -0.23165846 -0.9348217 -0.24548078 0.74664414

prescalers.year.weight f4 [8, 1]
00000000: 56b5 6bbf cee6 68bf ee7f 493f 067c 24bf
00000010: 36e0 1b3f f021 483e 884f 28bf 32b0 70bf
-0.9207357 -0.9097718 0.7871083 -0.64251745 0.60888994 0.19544196 -0.65746355 -0.9401885

prescalers.year.bias f4 [8]
00000000: 24c5 fbbe 5a84 3dbf f880 babe fca4 e83e
00000010: ea29 54bf 2c60 573f 248f df3e 429c 083f
-0.49173844 -0.7403008 -0.3642652 0.45438373 -0.82876456 0.8413112 0.43663895 0.5336343

prescalers.station_hour_sin.weight f4 [8, 1]
00000000: 0a24 4ebf 22a2 10bf f07b be3d ac32 fd3e
00000010: e0e2 a83d 4c73 b9be 604e 26bf e4a2 543f
-0.8052374 -0.56497395 0.09300983 0.49452722 0.08246398 -0.36220777 -0.6496334 0.8306105

prescalers.station_hour_sin.bias f4 [8]
00000000: e67f 443f 62f1 4bbf 1868 69be 6a19 723f
00000010: 48d7 40bf 7a0e 373f c49b 243f a029 d13d
0.7675766 -0.79665196 -0.22793615 0.9457003 -0.75328493 0.71506464 0.6430018 0.102130175

prescalers.station_hour_cos.weight f4 [8, 1]
00000000: 3ed3 59bf 1259 15bf a80d 10be a8e9 7a3e
00000010: a810 353f 6cee a2be b00f 613f e074 6cbd
-0.85087955 -0.58339036 -0.1406771 0.24503195 0.7072854 -0.31822526 0.8791456 -0.05772865

prescalers.station_hour_cos.bias f4 [8]
00000000: 88bd c43e 2c89 773f 7854 083e 78f3 8c3e
00000010: 9ce5 2c3f ec2c 9d3e 50c3 d63e 7617 65bf
0.3842585 0.9669368 0.13313472 0.27529502 0.67537856 0.30698335 0.41945887 -0.89488924

prescalers.relative_time_idx.weight f4 [8, 1]
00000000: c02e 173e 403c 3abd fe70 47bf 1885 4cbe
00000010: 16a9 48bf f845 6b3f 603d ccbd 20cd 2bbf
0.14763927 -0.045467615 -0.7790679 -0.19972646 -0.78383005 0.9190364 -0.09972644 -0.6710987

prescalers.relative_time_idx.bias f4 [8]
00000000: e4c6 e2be f2c9 41bf 560b 2abf 5c8a f9be
00000010: b6e4 6d3f 9aaf 1abf 0457 163f ac8d 683f
-0.44292367 -0.7569877 -0.6642355 -0.48738372 0.9292711 -0.60424197 0.58726525 0.90841174

prescalers.PM25.weight f4 [8, 1]
00000000: 480e 77be 9811 16be 4a98 2f3f 88cf 833e
00000010: b009 55be 24e2 693f c629 3e3f 04b2 a43e
-0.24126542 -0.14655149 0.6859175 0.2574427 -0.20804477 0.9136069 0.7428249 0.32167065

prescalers.PM25.bias f4 [8]
00000000: 287d 543f ac55 a33e c41a 513f 2476 5e3f
00000010: 40bf c93e 48eb 51be 5469 283f 2a98 48bf
0.83003473 0.319013 0.81681466 0.8689902 0.39403725 -0.20499909 0.6578572 -0.78357184

prescalers.PM25_diff_24.weight f4 [8, 1]
00000000: e025 b23e b00b f73d 2818 143e 802d 4c3d
00000010: 88a0 72bf c00b 013e 7c77 51bf f8ac 6a3e
0.3479452 0.12062776 0.1446234 0.04984808 -0.947762 0.12602139 -0.81822944 0.22917545

prescalers.PM25_diff_24.bias f4 [8]
00000000: 6009 48be a46e 25bf 68f2 aa3e c423 a73e
00000010: 3cd8 1fbf 3821 d1be e470 ca3e 00d3 753c
-0.19534826 -0.6462195 0.33388066 0.32644475 -0.6243932 -0.40845656 0.39539254 0.01500392

prescalers.PM25_rolling_mean_24.weight f4 [8, 1]
00000000: 9482 e43e 509b c9bd 7459 69bf 08e3 91be
00000010: d0a5 4fbf 802e 03bc 4047 6f3f f86e 1b3e
0.44630873 -0.09844077 -0.9115212 -0.28493524 -0.81112385 -0.008006692 0.93468094 0.1517905

prescalers.PM25_rolling_mean_24.bias f4 [8]
00000000: 6893 e93e 4865 1c3f b001 913e 8240 6abf
00000010: 00b0 d439 0883 f7be 6ac1 16bf 8c0b 1c3f
0.45620275 0.6109204 0.283216 -0.9150468 0.0004056692 -0.48342156 -0.58888876 0.6095512

prescalers.PM25_lagged_by_48.weight f4 [8, 1]
00000000: 8c69 f6be 38d3 d5be a2d7 34bf 9844 133f
00000010: 70eb 23bf 1c06 6bbf 88d4 1f3f 10ee aa3d
-0.481274 -0.4176271 -0.7064153 0.5752654 -0.64031124 -0.918062 0.6243367 0.08346188

prescalers.PM25_lagged_by_48.bias f4 [8]
00000000: 9866 02be 38e3 7f3e c0fe 22be 5a36 73bf
00000010: 2080 743f 5021 973e f0d4 4c3f 2460 a33e
-0.12734449 0.24989021 -0.15917492 -0.9500481 0.95508003 0.29517603 0.80012417 0.31909287

prescalers.PM25_lagged_by_72.weight f4 [8, 1]
00000000: 4096 fb3d f415 883e eccb 4f3f c046 6bbd
00000010: c61a 0f3f a00c 42bd 9032 913d 34c9 9d3e
0.12284517 0.2657925 0.81170535 -0.05744052 0.5590023 -0.04737532 0.07089722 0.30817568

prescalers.PM25_lagged_by_72.bias f4 [8]
00000000: 044f 1fbf 00ea 1f3b a075 713d 74a0 fbbe
00000010: 3296 3c3f ae28 463f dc9d a5be 9018 d13e
-0.62229943 0.002440095 0.058950067 -0.49145854 0.7366668 0.7740582 -0.32347 0.40839052

prescalers.PM25_lagged_by_96.weight f4 [8, 1]
00000000: 4c53 debe 1c32 9bbe c0fe 52bf a8c3 8ebe
00000010: 2ce2 41bf 720f 1b3f 58f5 4d3e 4470 d43e
-0.43422925 -0.30311668 -0.8241997 -0.2788365 -0.75735736 0.6057044 0.20113122 0.41491902

prescalers.PM25_lagged_by_96.bias f4 [8]
00000000: d4ad edbe 64dd 83be cea9 2d3f 5cc7 73bf
00000010: ecda 683f 201b 13bf 4cef 573f d8d2 5b3f
-0.46421683 -0.25754845 0.67837226 -0.95226073 0.9095905 -0.57463264 0.84349513 0.858686

prescalers.PM25_lagged_by_120.weight f4 [8, 1]
00000000: c23b 43bf 5c3f cf3e c06b 493e 001f 79bd
00000010: 2a4a 153f 5cb5 30bf 00de bf3e f471 ad3e
-0.7626306 0.40478027 0.1967001 -0.06082058 0.5831629 -0.6902673 0.3747406 0.33876002

prescalers.PM25_lagged_by_120.bias f4 [8]
00000000: 08a9 2fbe de7a 643f 50cc f3bd 2820 783f
00000010: 843b 4a3f 8a52 153f 8c02 b1be 4073 3cbf
-0.17154324 0.8924998 -0.11904204 0.96924067 0.78997064 0.5832907 -0.34572256 -0.7361336

prescalers.PM25_lagged_by_144.weight f4 [8, 1]
00000000: 5042 c0bd b845 ba3e 5460 bfbe a4a4 35bf
00000010: 2077 65bf ec2f 5abf fca0 2e3f 9847 88be
-0.09387648 0.36381316 -0.3737818 -0.70954347 -0.89634895 -0.8522937 0.6821439 -0.26617122

prescalers.PM25_lagged_by_144.bias f4 [8]
00000000: b423 e8be 4cfa 743f 8209 343f bad6 67bf
00000010: 0e36 413f a09d 2e3e 6099 903d a201 083f
-0.4533974 0.9569442 0.7032701 -0.9056202 0.75473106 0.17052317 0.07060504 0.5312749

prescalers.PM25_lagged_by_168.weight f4 [8, 1]
00000000: 483d 46be 3c23 803e 8035 303e 9431 713f
00000010: 50ef 073e 60c4 ebbd 52cf 683f 3069 c1bd
-0.19359314 0.25026882 0.17207909 0.94216275 0.13274884 -0.11512065 0.90941346 -0.09443891

prescalers.PM25_lagged_by_168.bias f4 [8]
00000000: d4c7 313f c064 ef3d 403e 903c 6408 d6be
00000010: 38d6 c0be d81b 173f 00b3 fa3b 08de 873e
0.6944554 0.116891384 0.017607808 -0.41803277 -0.37663436 0.5902686 0.007650733 0.26536584

static_variable_selection.flattened_grn.resample_norm.mask f4 [6]
00000000: 0000 0000 0000 0000 0000 0000 0000 0000
00000010: 0000 0000 0000 0000
0.0 0.0 0.0 0.0 0.0 0.0

static_variable_selection.flattened_grn.resample_norm.norm.weight f4 [6]
00000000: 0000 803f 0000 803f 0000 803f 0000 803f
00000010: 0000 803f 0000 803f
1.0 1.0 1.0 1.0 1.0 1.0

static_variable_selection.flattened_grn.resample_norm.norm.bias f4 [6]
00000000: 0000 0000 0000 0000 0000 0000 0000 0000
00000010: 0000 0000 0000 0000
0.0 0.0 0.0 0.0 0.0 0.0

static_variable_selection.flattened_grn.fc1.weight f4 [6, 41]
00000000: 3da7 303d b98c 94bb f180 8fbd dc00 443e
00000010: 344f d13d 030c 55be fb5a 9fbd 1fd5 8ebd
00000020: 80bc 863e 57e4 abbd bafd 86be acc7 ff3e
00000030: 01a0 e8bd 2f6e f4bd 9a16 6c3e dca8 1fbe
00000040: 963b 40bc 7048 99be af53 a03e 6f43 9cbe
00000050: 42f4 6f3e 4eef 66be 6bad f4bd e08b 89bd
00000060: f931 823e c093 89be 7328 c7bc 3c06 fd3e
00000070: fe2a 883e 67f2 12bf 19d2 c83d 7fbd 77bd
00000080: b055 9dbe e7fd 733e 8da6 ff3d 3a07 563d
00000090: 37d2 05bd 3174 043f bf6d 0bbe 0096 90bd
000000a0: abf3 8e3e 532e 5ebc b7ed 9cbe 6320 6abe
000000b0: 650d 823e 48cd 1e3e 7db3 9b3d 7a09 ce3e
000000c0: 8d76 103d d2d9 9f3e 4614 2b3d 88e4 9e3b
000000d0: c9c6 30be 57f6 813e 7040 fabe c9af 3b3e
000000e0: 0570 4c3e bd9b 593d e2ed c63b 64c9 623e
000000f0: 0c4f 923e 5b5b debd 3940 b0bd 07ef c33d
00000100: d67b 44bd 0942 48bd b762 20be 3e32 b9be
00000110: 4e7e 8cbe de9c 21be 1561 9dbe d24f 6bbe
00000120: 5633 58be f2ae 8ebe 38e6 3f3e 3965 273e
00000130: fcb1 973b f87d 1c3e c1f7 99bd 8387 ce3e
00000140: 4e8d fc3c 71b2 dcbc 36a0 63bc 1b48 00be
00000150: 772b c1be 5a26 d23c ad83 0c3e 9281 eb3b
00000160: 2e18 233a 7769 1bbd 6bed b7be 8396 aa3e
00000170: e301 073f 3326 b03e 4b2b f7bc 5f76 e73e
00000180: cbba 9a3c 1b24 a23d d464 35bd 411f b03d
00000190: d211 1bbe 4453 193b e137 023f 02f6 2c3e
000001a0: 93e0 61be 67c8 9dbe 23ff 5d3e 434a b33d
000001b0: 623a 403e 80d9 7939 cc26 c9bc e955 253e
000001c0: b5c0 41bd c1f5 703e c4c7 a4bd db73 483d
000001d0: c140 44be 032d 06bf d04d f53e 44d1 ae3e
000001e0: e4e8 19be 3c71 1a3e bbeb dabe 2de9 ebbd
000001f0: 4d2e d3bd 275c d33d 8332 07bd 4610 c13d
00000200: 4cf7 e4ba 0a94 7a3d 5091 25bd 54d4 6a3e
00000210: e351 1abd 7a32 313d 6646 f1bd fc5c 4bbe
00000220: 2077 8a3b 8b23 833d b8fa 483d cc0f 5f3e
00000230: 2660 ccbe f403 063f 1cc5 3fbd fc0b 9e3d
00000240: a483 3abe 1b76 e5be eeb2 48be 329f 7dbe
00000250: 87f3 273e 09ff da3e 8b45 893e 0caa f63d
00000260: 630b a43d ffbb c8bd a516 f9bd dea8 e2be
00000270: fbc6 acbe 814e 8c3e ad08 b3bd bb5e 1cbe
00000280: 2302 38be 9fee b23d f825 75be 2d5d cd39
00000290: b0de 113e 05da 273e 8fda fd3d 8aa4 e83d
000002a0: cf5e 26be 28c6 4bbd a35b 093e 228f 6e3c
000002b0: 85b0 2ebd 6de8 dcbd af00 af3e 59f1 b4be
000002c0: 73f0 90be 428b fdbe c02e 583e c21e 3c3e
000002d0: 32d5 903c d4c4 643e 0d26 3c3d 6da6 343e
000002e0: 380d b5be 470e cebe d807 2dbd f9fd 9e3e
000002f0: aa15 37bf 2332 4dbf b68f f03e b2d9 ce3d
00000300: ee44 433e d79d 823e 04b1 a3ba d069 bdbe
00000310: 1629 9ebe 1721 a73e ca2d d43d 54ff 1b3d
00000320: 8439 0c3d 5a33 203f c9c9 debe d5ed e4be
00000330: b7b2 3f3c 67a9 babe 0cba 833e 0c35 5fbe
00000340: 46a9 703e d6d2 4d3e f274 ff3e 3aff 923e
00000350: fdeb 33be 0574 a9be 1066 9d3d 73d0 d93d
00000360: 94b9 dbbd 10fa 08be 8225 0c3f d4fd fbbd
00000370: 1e45 b1bb 19a4 64bd 40bb 7cbe cdd7 983b
00000380: 2228 333e 116e 35bd 8390 b23e d307 12bf
00000390: d25a 17be 87ee 24bd 1506 bc3c 132a 87be
000003a0: b0b7 a73d 1676 0bbe 1c4f 39be 15b7 24bd
000003b0: 9aa0 44be 1328 b03b fbbf 9dbe c91e 93be
000003c0: a441 ccbe 8554 a7be ef46 ef3d 9a56 31be
000003d0: a358 5dbe a80a c93e
0.04312824 -0.004533377 -0.070070155 0.19140953 0.10220185 -0.20805363 -0.07781025 -0.069742434
0.2631569 -0.08393162 -0.26365453 0.49957025 -0.11358643 -0.11935078 0.23055497 -0.15591758
-0.011732956 -0.29938078 0.31313846 -0.30520198 0.2343302 -0.22552225 -0.11947139 -0.06716132
0.2542875 -0.26870537 -0.02431128 0.4941882 0.265953 -0.57401127 0.09805698 -0.060483452
-0.30729437 0.23827325 0.12482939 0.052252986 -0.03267118 0.51739794 -0.13616084 -0.0705986
0.2792028 -0.013560849 -0.30650112 -0.22863917 0.25400844 0.15507996 0.07602594 0.40241605
0.03526931 0.3122087 0.04176738 0.0048490204 -0.1726333 0.25383255 -0.48877287 0.18328775
0.19964607 0.05312704 0.0060708383 0.22147137 0.28575933 -0.108572684 -0.086059995 0.09567075
-0.04796966 -0.0488911 -0.15662657 -0.36171144 -0.27440113 -0.15782496 -0.3073813 -0.22979668
-0.21113333 -0.27867848 0.18740165 0.16347207 0.0046293717 0.15282428 -0.075179584 0.40337762
0.030829098 -0.026940556 -0.013893178 -0.12527506 -0.37728474 0.025653053 0.13722105 0.007187077
0.00062215596 -0.037942376 -0.35923323 0.33317956 0.52737254 0.34404144 -0.03017201 0.45207497
0.018887898 0.07917043 -0.04428561 0.08599711 -0.15143517 0.0023395577 0.50866514 0.1689072
-0.22058325 -0.30816957 0.21679358 0.08754399 0.18772271 0.00023827516 -0.024554633 0.16146053
-0.04730292 0.23531248 -0.08045915 0.048938613 -0.19165327 -0.5241243 0.4791093 0.34144032
-0.15030247 0.15082258 -0.42757973 -0.11519084 -0.103115655 0.10320311 -0.033007156 0.09426932
-0.001746872 0.061176337 -0.040421784 0.22932559 -0.03767575 0.04326103 -0.117810056 -0.1985969
0.0042256266 0.06403264 0.04906723 0.2178337 -0.39917105 0.5234978 -0.046818838 0.077171296
-0.1821428 -0.4481667 -0.19599506 -0.2476776 0.16401492 0.427727 0.2681087 0.120441526
0.08009984 -0.098014824 -0.12162522 -0.4426946 -0.3374556 0.27403644 -0.08741889 -0.15270512
-0.17969565 0.087369196 -0.23940265 0.00039170068 0.14245105 0.16391762 0.12395202 0.11359508
-0.16247104 -0.049749523 0.13413863 0.014560493 -0.04264881 -0.10786519 0.3418021 -0.35340384
-0.28308448 -0.49520308 0.21111584 0.18371108 0.017679784 0.22340709 0.045934726 0.17641611
-0.35361648 -0.40245268 -0.04224381 0.3105314 -0.7151743 -0.8015463 0.46984643 0.10100116
0.19069263 0.25511047 -0.0012488668 -0.3699479 -0.3089072 0.32642433 0.10360296 0.038085297
0.03423454 0.62578356 -0.43513325 -0.447127 0.011700324 -0.3645737 0.2572788 -0.2179758
0.23502073 0.20099959 0.4989391 0.28710347 -0.17570491 -0.33096328 0.076854825 0.10635462
-0.107287556 -0.13376641 0.5474473 -0.12304273 -0.0054098507 -0.05582056 -0.24680805 0.0046643973
0.17495778 -0.04429442 0.3487588 -0.5704319 -0.14780739 -0.04026654 0.022952119 -0.26399288
0.081893325 -0.13619265 -0.18096584 -0.040213663 -0.1920189 0.005375871 -0.30810532 -0.28734425
-0.3989383 -0.3268167 0.116834514 -0.17318192 -0.21615843 0.39265943

static_variable_selection.flattened_grn.fc1.bias f4 [6]
00000000: 0000 0000 0000 0000 0000 0000 0000 0000
00000010: 0000 0000 0000 0000
0.0 0.0 0.0 0.0 0.0 0.0

static_variable_selection.flattened_grn.fc2.weight f4 [6, 6]
00000000: e91b a3bf 7a5c 95bf 1cae 36bd d622 6cbf
00000010: f690 1ebe 81b7 6dbf 6cb5 303d 26d2 73bf
00000020: 9f1b 923f c799 99bc 326a 363e a95f 08bf
00000030: 2e31 8f3e 90c3 073f 0392 10bf c621 9dbe
00000040: 8ed2 733f 5c34 043f 1f71 22be 5e9b 293f
00000050: d82d 13be f12c ce3e 5bdc 8fbf 3d27 9bbe
00000060: ca11 b73d bd79 ff3e 201c 513f 5619 a4be
00000070: e537 74bc 4a18 723f 8c0a 2dbf 1d1e 0abe
00000080: dcd7 9dbe 3edf c53e f59a 18bf f6a5 893f
-1.2742893 -1.1668847 -0.044599637 -0.92240655 -0.15484986 -0.9285813 0.043141767 -0.95242536
1.1414679 -0.018750085 0.17813948 -0.53270966 0.2796721 0.5303278 -0.56472796 -0.3068983
0.95243156 0.51642394 -0.15863465 0.66252697 -0.14372957 0.40268663 -1.1239122 -0.30303374
0.0893894 0.49897566 0.8168354 -0.3205058 -0.014905904 0.9456831 -0.6759422 -0.1348805
-0.3082875 0.38646883 -0.59611446 1.0753772

static_variable_selection.flattened_grn.fc2.bias f4 [6]
00000000: 0000 0000 0000 0000 0000 0000 0000 0000
00000010: 0000 0000 0000 0000
0.0 0.0 0.0 0.0 0.0 0.0

static_variable_selection.flattened_grn.gate_norm.glu.fc.weight f4 [12, 6]
00000000: 16e4 d43e d548 b83e fe23 78be ac0e cf3c
00000010: 007a 493e 5bbd f6be 2732 2c3e 1f92 02bf
00000020: 9e60 663e 5bb6 f5be 3c74 213e 42f9 9fbe
00000030: 5688 bfbc a772 853e 6c72 163e 6cb1 863e
00000040: f94f bc3e 523b 0e3f bc2e c6be 6d7b bfbe
00000050: c767 0dbf 85ef 553e 39ba 0cbf fe01 ef3c
00000060: c4ed de3e 7048 c73d 6ac9 8cbe fbd3 e63e
00000070: 7f6e 84be 97bc a9be f4ab 5bbe f9cb b73e
00000080: 634e 113f 2cab ee3d 0bfa 9dbe 1e8e 11bf
00000090: d276 cf3e 3a5e cb3e 51d0 bd3e 3ab1 943e
000000a0: ac42 083e 15e7 7abd 7a98 febe 166d 02bf
000000b0: c66d db3e e42b 913e 573a b33e ae9c e7be
000000c0: 49bc 44be af7b 1fbd 05e5 0abe 4267 e73e
000000d0: e911 f7be de58 fcbe dbba da3e 8b3d 4a3e
000000e0: 9ddf 60be 9a1b d3be 9406 e5be 6270 f8be
000000f0: 7fc5 e0be 8ae8 fe3e ad25 9fbe bb28 c93e
00000100: 4a90 b93e 6525 b4be efa8 1e3e 2113 39be
00000110: 963d 253e cda7 d53e e045 953e 2dc9 a03e
0.41580266 0.35993066 -0.2423248 0.02527555 0.19675446 -0.48191342 0.16816007 -0.51004213
0.22497794 -0.4799069 0.15766996 -0.31244856 -0.02338044 0.26064035 0.14692086 0.26307237
0.36779764 0.55559266 -0.3870753 -0.37398854 -0.55236477 0.2089215 -0.54971653 0.029175755
0.43540776 0.09730613 -0.27497417 0.45083603 -0.25865552 -0.33151695 -0.21452314 0.35897806
0.56760234 0.11653742 -0.3085483 -0.5685748 0.4052034 0.39720327 0.37072995 0.29041463
0.13306683 -0.061255533 -0.49725705 -0.509477 0.42857188 0.28353798 0.35005447 -0.45236725
-0.1921245 -0.038936313 -0.13563927 0.45195967 -0.48255852 -0.4928655 0.42720684 0.1975004
-0.21960302 -0.41231996 -0.4473158 -0.4852324 -0.43900678 0.49786788 -0.31083432 0.39288887
0.36242896 -0.3518478 0.1549413 -0.18073703 0.16136774 0.41729584 0.29154873 0.31403485

static_variable_selection.flattened_grn.gate_norm.glu.fc.bias f4 [12]
00000000: 0000 0000 0000 0000 0000 0000 0000 0000
00000010: 0000 0000 0000 0000 0000 0000 0000 0000
00000020: 0000 0000 0000 0000 0000 0000 0000 0000
0.0 0.0 0.0 0.0 0.0 0.0 0.0 0.0
0.0 0.0 0.0 0.0

static_variable_selection.flattened_grn.gate_norm.add_norm.norm.weight f4 [6]
00000000: 0000 803f 0000 803f 0000 803f 0000 803f
00000010: 0000 803f 0000 803f
1.0 1.0 1.0 1.0 1.0 1.0

static_variable_selection.flattened_grn.gate_norm.add_norm.norm.bias f4 [6]
00000000: 0000 0000 0000 0000 0000 0000 0000 0000
00000010: 0000 0000 0000 0000
0.0 0.0 0.0 0.0 0.0 0.0

static_variable_selection.single_variable_grns.station_loc.mask f4 [32]
00000000: 0000 0000 0000 0000 0000 0000 0000 0000
00000010: 0000 0000 0000 0000 0000 0000 0000 0000
00000020: 0000 0000 0000 0000 0000 0000 0000 0000
00000030: 0000 0000 0000 0000 0000 0000 0000 0000
00000040: 0000 0000 0000 0000 0000 0000 0000 0000
00000050: 0000 0000 0000 0000 0000 0000 0000 0000
00000060: 0000 0000 0000 0000 0000 0000 0000 0000
00000070: 0000 0000 0000 0000 0000 0000 0000 0000
0.0 0.0 0.0 0.0 0.0 0.0 0.0 0.0
0.0 0.0 0.0 0.0 0.0 0.0 0.0 0.0
0.0 0.0 0.0 0.0 0.0 0.0 0.0 0.0
0.0 0.0 0.0 0.0 0.0 0.0 0.0 0.0

static_variable_selection.single_variable_grns.station_loc.norm.weight f4 [32]
00000000: 0000 803f 0000 803f 0000 803f 0000 803f
00000010: 0000 803f 0000 803f 0000 803f 0000 803f
00000020: 0000 803f 0000 803f 0000 803f 0000 803f
00000030: 0000 803f 0000 803f 0000 803f 0000 803f
00000040: 0000 803f 0000 803f 0000 803f 0000 803f
00000050: 0000 803f 0000 803f 0000 803f 0000 803f
00000060: 0000 803f 0000 803f 0000 803f 0000 803f
00000070: 0000 803f 0000 803f 0000 803f 0000 803f
1.0 1.0 1.0 1.0 1.0 1.0 1.0 1.0
1.0 1.0 1.0 1.0 1.0 1.0 1.0 1.0
1.0 1.0 1.0 1.0 1.0 1.0 1.0 1.0
1.0 1.0 1.0 1.0 1.0 1.0 1.0 1.0

static_variable_selection.single_variable_grns.station_loc.norm.bias f4 [32]
00000000: 0000 0000 0000 0000 0000 0000 0000 0000
00000010: 0000 0000 0000 0000 0000 0000 0000 0000
00000020: 0000 0000 0000 0000 0000 0000 0000 0000
00000030: 0000 0000 0000 0000 0000 0000 0000 0000
00000040: 0000 0000 0000 0000 0000 0000 0000 0000
00000050: 0000 0000 0000 0000 0000 0000 0000 0000
00000060: 0000 0000 0000 0000 0000 0000 0000 0000
00000070: 0000 0000 0000 0000 0000 0000 0000 0000
0.0 0.0 0.0 0.0 0.0 0.0 0.0 0.0
0.0 0.0 0.0 0.0 0.0 0.0 0.0 0.0
0.0 0.0 0.0 0.0 0.0 0.0 0.0 0.0
0.0 0.0 0.0 0.0 0.0 0.0 0.0 0.0

static_variable_selection.single_variable_grns.latitude.resample_norm.mask f4 [32]
00000000: 0000 0000 0000 0000 0000 0000 0000 0000
00000010: 0000 0000 0000 0000 0000 0000 0000 0000
00000020: 0000 0000 0000 0000 0000 0000 0000 0000
00000030: 0000 0000 0000 0000 0000 0000 0000 0000
00000040: 0000 0000 0000 0000 0000 0000 0000 0000
00000050: 0000 0000 0000 0000 0000 0000 0000 0000
00000060: 0000 0000 0000 0000 0000 0000 0000 0000
00000070: 0000 0000 0000 0000 0000 0000 0000 0000
0.0 0.0 0.0 0.0 0.0 0.0 0.0 0.0
0.0 0.0 0.0 0.0 0.0 0.0 0.0 0.0
0.0 0.0 0.0 0.0 0.0 0.0 0.0 0.0
0.0 0.0 0.0 0.0 0.0 0.0 0.0 0.0

static_variable_selection.single_variable_grns.latitude.resample_norm.norm.weight f4 [32]
00000000: 0000 803f 0000 803f 0000 803f 0000 803f
00000010: 0000 803f 0000 803f 0000 803f 0000 803f
00000020: 0000 803f 0000 803f 0000 803f 0000 803f
00000030: 0000 803f 0000 803f 0000 803f 0000 803f
00000040: 0000 803f 0000 803f 0000 803f 0000 803f
00000050: 0000 803f 0000 803f 0000 803f 0000 803f
00000060: 0000 803f 0000 803f 0000 803f 0000 803f
00000070: 0000 803f 0000 803f 0000 803f 0000 803f
1.0 1.0 1.0 1.0 1.0 1.0 1.0 1.0
1.0 1.0 1.0 1.0 1.0 1.0 1.0 1.0
1.0 1.0 1.0 1.0 1.0 1.0 1.0 1.0
1.0 1.0 1.0 1.0 1.0 1.0 1.0 1.0

static_variable_selection.single_variable_grns.latitude.resample_norm.norm.bias f4 [32]
00000000: 0000 0000 0000 0000 0000 0000 0000 0000
00000010: 0000 0000 0000 0000 0000 0000 0000 0000
00000020: 0000 0000 0000 0000 0000 0000 0000 0000
00000030: 0000 0000 0000 0000 0000 0000 0000 0000
00000040: 0000 0000 0000 0000 0000 0000 0000 0000
00000050: 0000 0000 0000 0000 0000 0000 0000 0000
00000060: 0000 0000 0000 0000 0000 0000 0000 0000
00000070: 0000 0000 0000 0000 0000 0000 0000 0000
0.0 0.0 0.0 0.0 0.0 0.0 0.0 0.0
0.0 0.0 0.0 0.0 0.0 0.0 0.0 0.0
0.0 0.0 0.0 0.0 0.0 0.0 0.0 0.0
0.0 0.0 0.0 0.0 0.0 0.0 0.0 0.0

static_variable_selection.single_variable_grns.latitude.fc1.weight f4 [8, 8]
00000000: dc05 693f e58c 323f e2cc c93e d72f 9fbc
00000010: 2093 673c 8544 303f 48f3 6abf b51e a8be
00000020: 0b33 953e f76e 163f 5b5c b63e d830 eb3e
00000030: 90b3 70bd d67b 593e f52b c23d f65a 883e
00000040: a3fc 91bc b51e b7bd 89da 92be ff47 b03d
00000050: b26b d43e 8f95 e83d fa58 41be 2fcc 973f
00000060: df58 593e 3f66 38be 112a 3ebd 5c64 463e
00000070: bd7a 183e e8f3 3ebe 64b7 823d e9d6 3a3f
00000080: fa9d 6cbe 6124 213f a287 b2be 73cd 2c3e
00000090: 0fad b83e d961 133e 3e45 7bbf 58b5 e03d
000000a0: 3e28 593f cf4d f3bc 7975 c9bd f995 703f
000000b0: c834 0d3f 9f28 08bf 7f7c 1c3f 987b a4be
000000c0: 8d50 3ebf 434e 3fbf aec4 84bc 291e 293f
000000d0: 8041 0dbf a168 273e 8d2c 74bf dcc9 fb3c
000000e0: a36d cbbd 022c b3bf 8ef9 063f c11d d9bd
000000f0: 68cf 483e 84be 4f3e 7c2e c93e 0a93 fe3e
0.91024566 0.6974624 0.39414126 -0.019431992 0.014134198 0.6885455 -0.9177747 -0.32835928
0.29140505 0.5876307 0.35617337 0.45935702 -0.058764994 0.21238646 0.094810404 0.26631898
-0.017820662 -0.08941404 -0.28682354 0.08607482 0.41488415 0.11356651 -0.18881598 1.1859187
0.21225308 -0.18007754 -0.046426836 0.19374222 0.14890571 -0.1864773 0.06382635 0.72984177
-0.23107138 0.62946135 -0.34869105 0.16875248 0.36069533 0.14392795 -0.9815253 0.109720886
0.8482703 -0.029700188 -0.09836859 0.9397884 0.5515866 -0.5318698 0.61127466 -0.32125545
-0.7434166 -0.7472879 -0.016207065 0.66061646 -0.5517807 0.16348507 -0.9538048 0.030735902
-0.09933021 -1.3997805 0.5272454 -0.10601378 0.19610369 0.2028752 0.39293277 0.49721557

static_variable_selection.single_variable_grns.latitude.fc1.bias f4 [8]
00000000: 0000 0000 0000 0000 0000 0000 0000 0000
00000010: 0000 0000 0000 0000 0000 0000 0000 0000
0.0 0.0 0.0 0.0 0.0 0.0 0.0 0.0

static_variable_selection.single_variable_grns.latitude.fc2.weight f4 [8, 8]
00000000: efa1 0e3d 31b6 88be 05cf 2a3f 6d88 b03e
00000010: 9784 b7be 208e ddbe 44fd b6bb fb91 bebe
00000020: 6221 283e b95c 5cbf 20a3 863e 7938 5f3e
00000030: 572a b1bc d542 0abf 2c94 243d b023 b03d
00000040: 754e 12bf 5639 3bbe b808 0ebf 5688 72bf
00000050: 7741 073e 8fe1 b0be bec0 95be 3360 b23e
00000060: aa0a 513d aef6 9c3e 5654 f5be 8c1f ef3e
00000070: 9b17 5b3f 8a6e 8cbe 929a 753e f79d aabe
00000080: 3050 1cbf cd36 26bf 9b46 10bf 5bc7 12bf
00000090: 27c9 d4be ccff 523f 2601 5abf cecd 2b3d
000000a0: a06f c2be 2d30 ddbe 104d 0b3f c4b2 6c3e
000000b0: 79de 2b3f 0f3e 4b3e 455a a33e ea69 b0be
000000c0: f5d4 1a3d 7b03 7d3f 80b3 3a3f b4cd 013f
000000d0: 1eb2 bbbe 4d33 81be 626b ba3d edec e1be
000000e0: 0a25 07bf 32a7 01bf 2ddb 6abf 764c e9bc
000000f0: 4f1e 83bf c5f0 9c3f 995d a03f b41e 97be
0.0348224 -0.267015 0.66722137 0.34479085 -0.35843346 -0.43272495 -0.005584391 -0.3722075
0.16418985 -0.86078984 0.2629633 0.21798886 -0.021626635 -0.5400823 0.04018037 0.08600557
-0.57150966 -0.1828359 -0.55482054 -0.9473928 0.13208567 -0.34547088 -0.29248613 0.3483902
0.05103556 0.30656952 -0.47915906 0.46703756 0.85582894 -0.27428085 0.23984745 -0.33323643
-0.61059856 -0.6492737 -0.56357735 -0.5733544 -0.41559717 0.82421565 -0.85158 0.041944318
-0.37975788 -0.43200818 0.54414463 0.23115069 0.6713634 0.19847892 0.31904808 -0.34455806
0.037800748 0.98833436 0.72930145 0.50704503 -0.3665933 -0.25234452 0.09102513 -0.44126073
-0.5279089 -0.50645745 -0.91740686 -0.028478842 -1.0243624 1.2260977 1.2528564 -0.29515612

static_variable_selection.single_variable_grns.latitude.fc2.bias f4 [8]
00000000: 0000 0000 0000 0000 0000 0000 0000 0000
00000010: 0000 0000 0000 0000 0000 0000 0000 0000
0.0 0.0 0.0 0.0 0.0 0.0 0.0 0.0

static_variable_selection.single_variable_grns.latitude.gate_norm.glu.fc.weight f4 [64, 8]
00000000: 24e4 383e d128 81be 03df 89be 8f1f 4fbe
00000010: d4af 473e 766e 7cbe 4820 8e3e c353 71be
00000020: 53ea a7bc 36db df3c f06a 40be 13b8 563c
00000030: 45f2 7abd e3cd 82be 0b60 68be 8dd8 8b3d
00000040: d12d 163e ceeb 423e 9f5f 093e 5fb4 0f3e
00000050: b12b 833e 5147 763e 94c0 c23c 0e53 d13b
00000060: 7df6 20be f101 0e3e 9c60 5abd 559a 47be
00000070: 9b2d 1dbe c411 35be 658e 8e3e 5a5f 53be
00000080: 392e fc3d 0f9c 823e 6e01 6bbe 1a0b 6cbd
00000090: d8b7 743d fae9 053d fe0d 3d3e a270 0fbb
000000a0: c4d9 453e 2db1 913e 92f9 a43d 8385 e3bd
000000b0: a29e 523d 17d5 81be 0144 81bd c477 b13c
000000c0: 6b63 783e 9064 dfbb 0ddf c6bd 2486 2c3b
000000d0: 29cc 2c3e e9d4 03be 3446 803d 4963 ad3d
000000e0: 5c5d 62be dc87 ce3d bcd6 1e3e f397 89be
000000f0: 9952 6f3e bce9 47bd 4155 9fbd c6d7 1fbe
00000100: 1542 5a3c 9be8 60be 272e 3f3e 6da8 8d3e
00000110: 42f2 1fbb f0f5 383c 9639 203e 7909 56be
00000120: ef1e a4ba 21b7 e63d 08c9 373e e8bc 1cbd
00000130: 932e 163e a7ce 5dbe 7c54 18be 9441 db3d
00000140: 30a8 b1bd 9c7a 76bb f4d3 0e3e 61ef c4bd
00000150: bbbf 8b3e 2e55 273e fb00 623e 3e7b 5ebe
00000160: 718f 873e a5e3 5d3e 02dd 843e 61d8 7b3e
00000170: 0289 a8bd e097 f83d 98f7 ff3d 67ad 3cbe
00000180: b59d 0d3e 3365 30bd 9d70 aabd 9a10 81bd
00000190: 110b 8dbe 3501 57be bd93 a53d 9a11 59bd
000001a0: 6a72 edbd ae9e 7d3d 08f7 23be 866e 943c
000001b0: 6478 dc3d 4249 89bd f2a8 e33d 20de 54be
000001c0: 7fcc 793e 8c7f 53bd 25bf 6bbd d7b1 233e
000001d0: 1a77 903e cab6 383d 2dea 08be 7de4 65be
000001e0: 5448 87be b881 5e3e 1ca7 02be b402 dfbb
000001f0: 2a04 de3d 7277 383e 2044 5fbe 24d3 a8bc
00000200: 6bad 92be c6a8 87bc 4683 6ebe caa4 903e
00000210: f985 4cbe 4f07 cfbb 31c7 3bbc bab8 85be
00000220: e481 87be eec4 96bd 7323 883e cd77 26be
00000230: 12e4 90be 163f 25be efff a1bb a751 0cbd
00000240: 5eae 3ebe c100 f6bd d5fe 743e 9738 3e3e
00000250: c898 82be bb27 ca3c 6936 f63d 1265 79be
00000260: b9a4 2c3e a674 8b3e 2711 67be c7ff 69be
00000270: cb29 913e 52f9 dc3d 99c6 53bd 81f1 553e
00000280: 744e 86be 1596 133e 1b64 56bd 949f 10be
00000290: bb24 8dbe 150c 1d3e 3afa e33d 6b12 833e
000002a0: ed7d 18be 2bd6 223e 88ee dbbd 63d0 64be
000002b0: 9398 c1bd 51e7 af3d 4311 773e 0902 443e
000002c0: 8040 99bd 1fd6 053e e63d c53d 0222 523e
000002d0: 642f 88be 1449 3dbe dc1d 19be 24f1 14be
000002e0: efc4 5c3e fc0a 11bc 6e53 86be 4fb8 163e
000002f0: 79ff 053e ae6c 113e ace4 393e f00d 903e
00000300: a80f 8f3e 634f 84be af34 e23d cd6b fd3d
00000310: 8aed 123e 506c 88be c083 a03b 3fea 8dbe
00000320: 2c48 593e 7d04 df3d 793d 593e d7d8 263d
00000330: 4d36 f2bd 347c 9a3c 9349 22be 070a 6a3e
00000340: 79c5 e6bd ed4f 983c 0616 8e3e 7e21 ecbd
00000350: 094d 28be 8c30 79be 7a66 503e 51a0 f23d
00000360: 950d dcbc 8f10 80be a9c3 4cbe 4ee2 5bbe
00000370: e55d e6bd 1f0c ac3d dff9 05be 1e2c 38bd
00000380: 97a4 80be 52b3 96bd 6cac 0bbe 98af 6f3d
00000390: 8406 e93d ef97 873e e884 a13d 42e3 af3b
000003a0: b04a 89be 3c66 24be 8166 863e 42bb 803e
000003b0: edfe 643e 64a8 753e 21d2 8dbd 6a0c 4ebe
000003c0: b27e 50be 977f dc3d c38a 8f3e bb69 05be
000003d0: 615b a8bd 9234 05be bebe 58be 29c4 933e
000003e0: 3765 fa3d d04b 0c3e 1c55 873d c0cc 20bd
000003f0: e574 7dbe 2262 81be a400 c03c 3cca 4bbc
0.18055779 -0.25226453 -0.26927957 -0.20226882 0.19500667 -0.24651513 0.27759004 -0.23567109
-0.020497477 0.027326208 -0.18790793 0.01310541 -0.061266202 -0.25547704 -0.22692887 0.06828413
0.14665915 0.19035265 0.13415383 0.1403365 0.2561927 0.24050643 0.023773469 0.0063880747
-0.15719028 0.13867928 -0.05331479 -0.19492467 -0.15349428 -0.17682558 0.27843013 -0.20641842
0.12313504 0.25509688 -0.22949764 -0.057627775 0.05974564 0.03269384 0.18462369 -0.0021887203
0.19321352 0.28455487 0.08055414 -0.1110945 0.051420815 -0.25357887 -0.06311799 0.021663554
0.24256675 -0.006817408 -0.09710512 0.0026325071 0.16874756 -0.12874188 0.0626339 0.08466203
-0.22105926 0.10084507 0.15511602 -0.2687374 0.23371352 -0.04880689 -0.07779933 -0.15609655
0.013321419 -0.21963732 0.1866995 0.2766756 -0.0024405872 0.011289105 0.15646967 -0.20902051
-0.0012521426 0.11265398 0.17947781 -0.038266093 0.14666204 -0.21660863 -0.14875978 0.107058674
-0.08674657 -0.0037609702 0.13948041 -0.096159704 0.27294716 0.16341087 0.22070687 -0.217267
0.26476625 0.21668871 0.25949866 0.24594261 -0.08229257 0.12138343 0.12498397 -0.18425523
0.13829692 -0.04306526 -0.083222605 -0.063019946 -0.27547505 -0.20996554 0.080848195 -0.0529953
-0.115940884 0.061918907 -0.16012204 0.018119108 0.1076515 -0.06703426 0.11116208 -0.20787859
0.24394415 -0.05163531 -0.057555337 0.1598581 0.28215867 0.045096196 -0.13370581 -0.22450443
-0.2642237 0.21729171 -0.1275906 -0.006805742 0.10840638 0.18014315 -0.21803331 -0.020608492
-0.28647932 -0.01655997 -0.23292264 0.28250724 -0.19972982 -0.00631801 -0.011461065 -0.26117498
-0.26466286 -0.0736178 0.26589546 -0.16256638 -0.28299004 -0.16137347 -0.0049438397 -0.034257557
-0.18621203 -0.120118625 0.23925336 0.18576275 -0.25507188 0.024677148 0.12022097 -0.24354962
0.16859712 0.27237433 -0.22565137 -0.22851478 0.28352198 0.107897416 -0.05170307 0.20892908
-0.2623173 0.1441272 -0.05234156 -0.14123374 -0.27567086 0.1533664 0.11131711 0.2559999
-0.14891787 0.15902011 -0.107388556 -0.22345118 -0.09452929 0.08589042 0.24127679 0.19141401
-0.074830055 0.13069962 0.09630947 0.20520785 -0.26598656 -0.18484908 -0.14952797 -0.14545113
0.21559499 -0.008852717 -0.26235527 0.14718746 0.13085736 0.14201614 0.18153638 0.28135633
0.27941632 -0.25841817 0.11045205 0.12374077 0.14348426 -0.26645136 0.0048985183 -0.27717778
0.21218938 0.10889528 0.21214856 0.04073414 -0.11826763 0.018858053 -0.15848379 0.22855388
-0.11268134 0.0185928 0.27751178 -0.11529826 -0.16435637 -0.24334925 0.20351592 0.11846984
-0.026861945 -0.25012633 -0.19996513 -0.21473047 -0.11248378 0.084007494 -0.130836 -0.04496395
-0.25125572 -0.073584214 -0.13639992 0.05851707 0.11378196 0.26483104 0.07886678 0.0053676674
-0.26814795 -0.16054624 0.2625008 0.25142866 0.22362871 0.23990017 -0.069248445 -0.20121923
-0.2036083 0.10766523 0.28035554 -0.13028614 -0.08220554 -0.13008335 -0.21166512 0.28860596
0.122263364 0.13700795 0.0660803 -0.039257765 -0.24751623 -0.25270182 0.023437805 -0.012438353

static_variable_selection.single_variable_grns.latitude.gate_norm.glu.fc.bias f4 [64]
00000000: 0000 0000 0000 0000 0000 0000 0000 0000
00000010: 0000 0000 0000 0000 0000 0000 0000 0000
00000020: 0000 0000 0000 0000 0000 0000 0000 0000
00000030: 0000 0000 0000 0000 0000 0000 0000 0000
00000040: 0000 0000 0000 0000 0000 0000 0000 0000
00000050: 0000 0000 0000 0000 0000 0000 0000 0000
00000060: 0000 0000 0000 0000 0000 0000 0000 0000
00000070: 0000 0000 0000 0000 0000 0000 0000 0000
00000080: 0000 0000 0000 0000 0000 0000 0000 0000
00000090: 0000 0000 0000 0000 0000 0000 0000 0000
000000a0: 0000 0000 0000 0000 0000 0000 0000 0000
000000b0: 0000 0000 0000 0000 0000 0000 0000 0000
000000c0: 0000 0000 0000 0000 0000 0000 0000 0000
000000d0: 0000 0000 0000 0000 0000 0000 0000 0000
000000e0: 0000 0000 0000 0000 0000 0000 0000 0000
000000f0: 0000 0000 0000 0000 0000 0000 0000 0000
0.0 0.0 0.0 0.0 0.0 0.0 0.0 0.0
0.0 0.0 0.0 0.0 0.0 0.0 0.0 0.0
0.0 0.0 0.0 0.0 0.0 0.0 0.0 0.0
0.0 0.0 0.0 0.0 0.0 0.0 0.0 0.0
0.0 0.0 0.0 0.0 0.0 0.0 0.0 0.0
0.0 0.0 0.0 0.0 0.0 0.0 0.0 0.0
0.0 0.0 0.0 0.0 0.0 0.0 0.0 0.0
0.0 0.0 0.0 0.0 0.0 0.0 0.0 0.0

static_variable_selection.single_variable_grns.latitude.gate_norm.add_norm.norm.weight f4 [32]
00000000: 0000 803f 0000 803f 0000 803f 0000 803f
00000010: 0000 803f 0000 803f 0000 803f 0000 803f
00000020: 0000 803f 0000 803f 0000 803f 0000 803f
00000030: 0000 803f 0000 803f 0000 803f 0000 803f
00000040: 0000 803f 0000 803f 0000 803f 0000 803f
00000050: 0000 803f 0000 803f 0000 803f 0000 803f
00000060: 0000 803f 0000 803f 0000 803f 0000 803f
00000070: 0000 803f 0000 803f 0000 803f 0000 803f
1.0 1.0 1.0 1.0 1.0 1.0 1.0 1.0
1.0 1.0 1.0 1.0 1.0 1.0 1.0 1.0
1.0 1.0 1.0 1.0 1.0 1.0 1.0 1.0
1.0 1.0 1.0 1.0 1.0 1.0 1.0 1.0

static_variable_selection.single_variable_grns.latitude.gate_norm.add_norm.norm.bias f4 [32]
00000000: 0000 0000 0000 0000 0000 0000 0000 0000
00000010: 0000 0000 0000 0000 0000 0000 0000 0000
00000020: 0000 0000 0000 0000 0000 0000 0000 0000
00000030: 0000 0000 0000 0000 0000 0000 0000 0000
00000040: 0000 0000 0000 0000 0000 0000 0000 0000
00000050: 0000 0000 0000 0000 0000 0000 0000 0000
00000060: 0000 0000 0000 0000 0000 0000 0000 0000
00000070: 0000 0000 0000 0000 0000 0000 0000 0000
0.0 0.0 0.0 0.0 0.0 0.0 0.0 0.0
0.0 0.0 0.0 0.0 0.0 0.0 0.0 0.0
0.0 0.0 0.0 0.0 0.0 0.0 0.0 0.0
0.0 0.0 0.0 0.0 0.0 0.0 0.0 0.0

static_variable_selection.single_variable_grns.longitude.resample_norm.mask f4 [32]
00000000: 0000 0000 0000 0000 0000 0000 0000 0000
00000010: 0000 0000 0000 0000 0000 0000 0000 0000
00000020: 0000 0000 0000 0000 0000 0000 0000 0000
00000030: 0000 0000 0000 0000 0000 0000 0000 0000
00000040: 0000 0000 0000 0000 0000 0000 0000 0000
00000050: 0000 0000 0000 0000 0000 0000 0000 0000
00000060: 0000 0000 0000 0000 0000 0000 0000 0000
00000070: 0000 0000 0000 0000 0000 0000 0000 0000
0.0 0.0 0.0 0.0 0.0 0.0 0.0 0.0
0.0 0.0 0.0 0.0 0.0 0.0 0.0 0.0
0.0 0.0 0.0 0.0 0.0 0.0 0.0 0.0
0.0 0.0 0.0 0.0 0.0 0.0 0.0 0.0

static_variable_selection.single_variable_grns.longitude.resample_norm.norm.weight f4 [32]
00000000: 0000 803f 0000 803f 0000 803f 0000 803f
00000010: 0000 803f 0000 803f 0000 803f 0000 803f
00000020: 0000 803f 0000 803f 0000 803f 0000 803f
00000030: 0000 803f 0000 803f 0000 803f 0000 803f
00000040: 0000 803f 0000 803f 0000 803f 0000 803f
00000050: 0000 803f 0000 803f 0000 803f 0000 803f
00000060: 0000 803f 0000 803f 0000 803f 0000 803f
00000070: 0000 803f 0000 803f 0000 803f 0000 803f
1.0 1.0 1.0 1.0 1.0 1.0 1.0 1.0
1.0 1.0 1.0 1.0 1.0 1.0 1.0 1.0
1.0 1.0 1.0 1.0 1.0 1.0 1.0 1.0
1.0 1.0 1.0 1.0 1.0 1.0 1.0 1.0

static_variable_selection.single_variable_grns.longitude.resample_norm.norm.bias f4 [32]
00000000: 0000 0000 0000 0000 0000 0000 0000 0000
00000010: 0000 0000 0000 0000 0000 0000 0000 0000
00000020: 0000 0000 0000 0000 0000 0000 0000 0000
00000030: 0000 0000 0000 0000 0000 0000 0000 0000
00000040: 0000 0000 0000 0000 0000 0000 0000 0000
00000050: 0000 0000 0000 0000 0000 0000 0000 0000
00000060: 0000 0000 0000 0000 0000 0000 0000 0000
00000070: 0000 0000 0000 0000 0000 0000 0000 0000
0.0 0.0 0.0 0.0 0.0 0.0 0.0 0.0
0.0 0.0 0.0 0.0 0.0 0.0 0.0 0.0
0.0 0.0 0.0 0.0 0.0 0.0 0.0 0.0
0.0 0.0 0.0 0.0 0.0 0.0 0.0 0.0

static_variable_selection.single_variable_grns.longitude.fc1.weight f4 [8, 8]
00000000: a519 443d e3d3 2a3d a0d1 59bd 597a 35be
00000010: d789 843f 676a 383f c3b1 d1bf ed7c 5ebf
00000020: f8b7 23be 555c 7ebe 55b4 c7bd 5c6c 22bf
00000030: ad4f 193e dc9d 75be 5ea9 9fbd dc6a 1f3f
00000040: 4156 993e d4b9 29bf d679 09bf f4c1 8b3e
00000050: f298 093e 3d7c dcbe cf72 663f 3f42 813d
00000060: 0bc0 d3be e631 4b3d cc18 eb3d 5cda 7a3e
00000070: feaf d9be f1ca 1e3f 9d96 54bf a2fd fbbd
00000080: 2b6d afbd a3fa 873e fd73 d4be 21b1 c1be
00000090: fa6b 733f 2d10 a0be b6ad 1bbe 8466 d43c
000000a0: b68d 0fbf c3f4 063e bc08 543d b068 853e
000000b0: e75c b23d 7c89 81bd afee 90bf 9e12 b43e
000000c0: 18c0 213f eb27 f43e dc9f 803e 58ce fa3e
000000d0: 184e a83e 2f44 c7be bf2e 913e 31c9 543f
000000e0: 1f9a 013f 8ab2 153f 6d64 2b3f 208d fb3e
000000f0: 994b 663f 7840 543d e135 79be dd81 1cbd
0.04787602 0.041705977 -0.05317843 -0.17722453 1.0354565 0.7203736 -1.6382374 -0.8690937
-0.15988147 -0.2483991 -0.097511925 -0.63446593 0.149718 -0.23986 -0.07795976 0.6227243
0.2994862 -0.66299176 -0.5370153 0.27296412 0.1343725 -0.43063536 0.90018934 0.063114636
-0.41357455 0.049608134 0.11479339 0.2449736 -0.42517084 0.62028414 -0.8304232 -0.12304236
-0.08565744 0.26558408 -0.41494742 -0.3783045 0.95086634 -0.3126234 -0.15202984 0.02592779
-0.5607561 0.13179307 0.051766142 0.26056433 0.08709126 -0.06325051 -1.132284 0.35170454
0.63183737 0.47686705 0.25121963 0.48985553 0.3287208 -0.38919207 0.28355977 0.83119494
0.50625795 0.58475554 0.6695011 0.49131107 0.899591 0.051819295 -0.2433696 -0.038209785

static_variable_selection.single_variable_grns.longitude.fc1.bias f4 [8]
00000000: 0000 0000 0000 0000 0000 0000 0000 0000
00000010: 0000 0000 0000 0000 0000 0000 0000 0000
0.0 0.0 0.0 0.0 0.0 0.0 0.0 0.0

static_variable_selection.single_variable_grns.longitude.fc2.weight f4 [8, 8]
00000000: f711 9fbe 1519 c63d 02c7 ed3c 9100 1bbf
00000010: 0428 bf3e c266 23bc f4c6 d13e 50fb 16bf
00000020: 0580 243e a239 a8be 770a 283e 2480 383d
00000030: 3fb1 d0be 96e3 dabe de6b 88be b301 323f
00000040: ec72 f23e 3767 34be b808 f33d 7ade dabe
00000050: 03f6 43be d87c 243f c5ef 15be a88d 0c3e
00000060: 79e2 14bf 670f 52be 861b 4dbe 2016 6e3c
00000070: 00e0 983e 9e18 1c3f b291 c7bc f8c5 ccbc
00000080: 4562 ac3f 3256 ae3e dd8c febb c7e7 a93e
00000090: 9eed 77bf 809a 963f e386 163e 5d62 1bbf
000000a0: be10 883e 69f1 66be 91dc 593f 445c 523f
000000b0: a0cd 3dbe a6ca a7bd 501e d33e 3839 8abf
000000c0: 1a0f 613f c758 8c3e 826e 993d ddbb 763f
000000d0: a0e8 f7be c92b be3e b699 79be f66a 98be
000000e0: 1d3d e6bd bb1a e73f 79ff 4ebf 4bd0 343f
000000f0: 32bf d8bd 97d1 b43f 8016 f0be 143e d8bd
-0.31068394 0.09672753 0.029025558 -0.6054774 0.37335217 -0.00997323 0.40972102 -0.5897722
0.1606446 -0.3285647 0.16410242 0.04504408 -0.40760228 -0.4275176 -0.26644796 0.6953384
0.47353303 -0.17617498 0.11866897 -0.4274786 -0.19136815 0.64252996 -0.14642246 0.13725913
-0.5815807 -0.20513688 -0.2003003 0.014531642 0.29858398 0.6097506 -0.024361465 -0.024996743
1.346749 0.34050137 -0.007768257 0.33184645 -0.9684695 1.17659 0.14699893 -0.60696965
0.26575273 -0.22553028 0.8510218 0.82172036 -0.18535471 -0.08192949 0.41234064 -1.0798712
0.8791367 0.27411482 0.07491781 0.96380407 -0.48419666 0.3714278 -0.24375042 -0.29769105
-0.11242125 1.8055032 -0.8085857 0.7063033 -0.105833426 1.4126462 -0.46892166 -0.105587155

static_variable_selection.single_variable_grns.longitude.fc2.bias f4 [8]
00000000: 0000 0000 0000 0000 0000 0000 0000 0000
00000010: 0000 0000 0000 0000 0000 0000 0000 0000
0.0 0.0 0.0 0.0 0.0 0.0 0.0 0.0

static_variable_selection.single_variable_grns.longitude.gate_norm.glu.fc.weight f4 [64, 8]
00000000: 44a8 523e 0c6f 6dbe 31c9 8e3e 1465 d4bd
00000010: 24fd 82be a452 7c3e fc39 113e 022e 09be
00000020: 7274 33bd 2996 2a3d a364 79be 102b 463e
00000030: d2e8 443e 42a3 923d 4039 5c3e d8e8 6f3e
00000040: 0de9 3dbe 247b 693e 1f3b ad3d 8545 ffbd
00000050: c900 5abe dcfb 8bbd c1d7 84bd 00c5 7b3e
00000060: 7d57 ce3d 361a 75bd 126b bcbd 68e8 21be
00000070: 8d68 de3d 4b30 c2bd 5067 88be 3cb7 6d3e
00000080: 1ed4 67be a7af dd3c 7bc8 5b3e b1e9 3bbe
00000090: 3ef6 68be 11aa e63d 5b0c 783e 339b 62be
000000a0: 5b93 1ebe 524b 2bbe 28b0 d9ba 9e4d 843e
000000b0: 8eca 86be b595 893e b8b6 2a3e a62e 89bd
000000c0: 6d99 373e 8449 1ebe ea52 67be 2df5 e4bc
000000d0: 5f9a fe3d 79f9 73be 4839 de3c 6f8b cdbd
000000e0: 035d 9cbd a2dd 9dbd 30cc 02be 4253 4d3e
000000f0: 75ca 3aba 23a5 e13d 51a8 7d3e 82b2 6dbe
00000100: db4f e63d 3ddc c53c 4990 03be 512a 46be
00000110: 51dd 673e 5cac b2bd 65f7 493e ab5a 6a3e
00000120: feb2 1dbe 3531 7a3e e638 413e 9b42 f5bd
00000130: 702c 30be 7c0e 22be 8778 223d 8483 d53d
00000140: da02 8dbe aef5 c9bd 03f1 9e3d 5500 093e
00000150: bb0d 6fbe 3105 783e 9ef0 6bbd 176b c0bc
00000160: 563e e2bb 9ca3 4f3e 2c9b 6f3e 4d30 cf3b
00000170: 8dae 753d 0c35 0d3e 8d23 163e 51b5 57be
00000180: 2011 e9bd 87bc b8bd ef48 15be 5785 883e
00000190: 482e 9a3d cb33 f3bc 23a9 733e 8d57 5abd
000001a0: 8495 64bd 41b3 873d 7275 24be 66b2 ab3d
000001b0: 7b84 c7bd eff0 213e a334 23bd 2554 933d
000001c0: b162 7c3d fcc3 243e 3045 2d3e 47b8 50be
000001d0: 00a1 563e 5b40 ad3d 6a71 e3bc be84 6b3e
000001e0: 9481 febd c95f 88be d494 c8bd e8c6 f03d
000001f0: dad7 763c b940 edbd d670 80be 9f69 cdbd
00000200: 6300 bebc 3e4d cfbc a6ed c73d 02f4 15be
00000210: 358c 0fbe 90c8 153e edb9 63be 7a60 513c
00000220: ac5b 09be d9ec 3e3e 9d20 353e 61ad dabd
00000230: 8e67 4a3e 0d4c 43be fb02 8bbe 0dc6 4f3e
00000240: d8a4 be3d fae0 8c3e db8f 383d b4dc 26bc
00000250: 2564 1a3e 3892 863e 83b2 813e e704 5d3c
00000260: b758 ccbd 055f 3dbe 9e28 1fbc 678c 913e
00000270: 0605 223d 5090 8e3e bd8e 133e 0d88 4f3e
00000280: 4c95 953d 854e afbc 909f 5e3e 645d 43be
00000290: 2394 57be 0269 cbbd 0d3f a93d 1a11 453e
000002a0: c441 b23c 6c5b 813e cad4 0c3e 72e5 65be
000002b0: b570 f83d 61cc 5dbe 11b3 ac3d c858 2abd
000002c0: c6d9 2b3e bbc9 88be f3bb 683e 1f82 b33c
000002d0: 7d2b 51be 1537 263e 8523 1f3e b5e1 70be
000002e0: 73c3 603e d10f 5abe 69b3 163d 681d 2b3d
000002f0: bb05 d83d 7453 7e3e 6e7b cfbc d00e b23c
00000300: c129 ea3d 2605 863e 590d 6a3e a075 bbbd
00000310: 2460 bfbc 5587 883e ff03 58be 7908 5bbe
00000320: b34a 3a3e 64cc d73d a86d 463d d53f e2bd
00000330: a288 22be 9d86 173e c47e 343e cc14 91bc
00000340: cca4 613d a315 693e 9164 e5bd 34cb 8d3d
00000350: 9257 11be f65a 353e a6d3 943d 25f2 b43d
00000360: 4321 58be 55a3 dc3a 60d4 32bd 3339 443e
00000370: 51a6 03bd 317c 63be 418b 9b3d b4ce 433e
00000380: adcb 2d3e 48a1 cfbd a082 96bc 4d03 89be
00000390: c2dd 9bbd ad43 32be 46fe 9dbb cfda c0bc
000003a0: e441 0a3e 1e83 a03d a25e 8ebe 8aab 873e
000003b0: badb 18be e970 ce3d af1e aabb c3b3 ef3d
000003c0: 9aeb 553e fc8e 70be 0b37 793d 3294 5fbe
000003d0: b6b8 51be a092 2dbe ddf4 f3bd 56b7 16be
000003e0: da9d 273e 8e25 90be db1a 563e bc97 49be
000003f0: 575d 70bd e303 913e 2946 0f3d c16f 7d3e
0.20572 -0.23186892 0.27887872 -0.103708416 -0.25583756 0.246409 0.14182276 -0.13396457
-0.043812223 0.04164711 -0.24354796 0.19352365 0.19229439 0.07160045 0.21506214 0.23428667
-0.18545933 0.2280088 0.08458542 -0.12464432 -0.21289362 -0.06835148 -0.06486464 0.24586868
0.10075281 -0.05983945 -0.092001095 -0.15811312 0.10859785 -0.094818674 -0.2664132 0.2321443
-0.2263951 0.027061297 0.21463196 -0.18350865 -0.22750184 0.11262906 0.24223463 -0.22129516
-0.15485899 -0.16727951 -0.0016608285 0.25840467 -0.26326412 0.2687203 0.16671264 -0.066983506
0.17929621 -0.15457731 -0.22590223 -0.02794894 0.12431788 -0.23825635 0.027126923 -0.100363605
-0.07634928 -0.07708289 -0.12773204 0.20051292 -0.00071255054 0.110178255 0.24771239 -0.23212627
0.112457 0.02415287 -0.12848009 -0.1935208 0.2264302 -0.08724281 0.1972328 0.2288615
-0.15400311 0.24432833 0.18869361 -0.119755946 -0.17204452 -0.15825838 0.039665725 0.10425475
-0.27541238 -0.09861313 0.07760813 0.13379033 -0.23345082 0.2422073 -0.057602517 -0.023488564
-0.0069044037 0.20277256 0.23399037 0.0063228966 0.059980918 0.13789767 0.14661999 -0.2106526
-0.113802195 -0.09020334 -0.14578603 0.2666423 0.07528359 -0.029687783 0.2379499 -0.05330615
-0.05580665 0.06625987 -0.16060427 0.08383636 -0.097420655 0.15814565 -0.03984512 0.07193784
0.061617557 0.16090387 0.16920924 -0.20382796 0.20959854 0.084595405 -0.027764041 0.22999856
-0.12427059 -0.26635578 -0.09794012 0.11756688 0.015066111 -0.115846105 -0.25086087 -0.10029911
-0.023193544 -0.025305387 0.09762125 -0.14643863 -0.14018328 0.1462729 -0.22238894 0.012779349
-0.13413876 0.18645038 0.17688222 -0.10677601 0.19766065 -0.1907198 -0.2715071 0.20290394
0.09308785 0.27515393 0.045059066 -0.010184456 0.15077265 0.2628343 0.25331506 0.013489938
-0.099778585 -0.18493278 -0.009714274 0.2842743 0.039555572 0.27844477 0.14409919 0.20266743
0.07303867 -0.021399746 0.21740556 -0.19078594 -0.21052603 -0.09932138 0.08263979 0.19244805
0.021759875 0.25265062 0.13753048 -0.22450808 0.12130872 -0.21659996 0.08432592 -0.041588575
0.16782293 -0.26716408 0.22727947 0.021912633 -0.20426746 0.1623195 0.15540893 -0.235236
0.21949558 -0.21295096 0.036792193 0.04177609 0.10547968 0.24836522 -0.02532741 0.021735579
0.11433745 0.26175803 0.22856654 -0.091532946 -0.023361273 0.2666575 -0.21095274 -0.21389951
0.18192558 0.10537031 0.04844442 -0.11047331 -0.15872434 0.14797445 0.17626482 -0.017710112
0.055088803 0.2276216 -0.11200822 0.069235235 -0.14193562 0.1771048 0.07266931 0.08835248
-0.21106438 0.0016833345 -0.043659568 0.19162445 -0.032141034 -0.22215344 0.0759492 0.1912182
0.16972227 -0.10138184 -0.018372834 -0.2676033 -0.07610656 -0.17408629 -0.0048215715 -0.023541836
0.13501698 0.078375086 -0.27806574 0.2649806 -0.14927569 0.1008013 -0.005191646 0.11704209
0.20890656 -0.23492044 0.06084351 -0.21833876 -0.20480618 -0.16950464 -0.11911938 -0.14718375
0.1636881 -0.28153652 0.20908682 -0.19686788 -0.058682766 0.28323278 0.03497902 0.24749662

static_variable_selection.single_variable_grns.longitude.gate_norm.glu.fc.bias f4 [64]
00000000: 0000 0000 0000 0000 0000 0000 0000 0000
00000010: 0000 0000 0000 0000 0000 0000 0000 0000
00000020: 0000 0000 0000 0000 0000 0000 0000 0000
00000030: 0000 0000 0000 0000 0000 0000 0000 0000
00000040: 0000 0000 0000 0000 0000 0000 0000 0000
00000050: 0000 0000 0000 0000 0000 0000 0000 0000
00000060: 0000 0000 0000 0000 0000 0000 0000 0000
00000070: 0000 0000 0000 0000 0000 0000 0000 0000
00000080: 0000 0000 0000 0000 0000 0000 0000 0000
00000090: 0000 0000 0000 0000 0000 0000 0000 0000
000000a0: 0000 0000 0000 0000 0000 0000 0000 0000
000000b0: 0000 0000 0000 0000 0000 0000 0000 0000
000000c0: 0000 0000 0000 0000 0000 0000 0000 0000
000000d0: 0000 0000 0000 0000 0000 0000 0000 0000
000000e0: 0000 0000 0000 0000 0000 0000 0000 0000
000000f0: 0000 0000 0000 0000 0000 0000 0000 0000
0.0 0.0 0.0 0.0 0.0 0.0 0.0 0.0
0.0 0.0 0.0 0.0 0.0 0.0 0.0 0.0
0.0 0.0 0.0 0.0 0.0 0.0 0.0 0.0
0.0 0.0 0.0 0.0 0.0 0.0 0.0 0.0
0.0 0.0 0.0 0.0 0.0 0.0 0.0 0.0
0.0 0.0 0.0 0.0 0.0 0.0 0.0 0.0
0.0 0.0 0.0 0.0 0.0 0.0 0.0 0.0
0.0 0.0 0.0 0.0 0.0 0.0 0.0 0.0

static_variable_selection.single_variable_grns.longitude.gate_norm.add_norm.norm.weight f4 [32]
00000000: 0000 803f 0000 803f 0000 803f 0000 803f
00000010: 0000 803f 0000 803f 0000 803f 0000 803f
00000020: 0000 803f 0000 803f 0000 803f 0000 803f
00000030: 0000 803f 0000 803f 0000 803f 0000 803f
00000040: 0000 803f 0000 803f 0000 803f 0000 803f
00000050: 0000 803f 0000 803f 0000 803f 0000 803f
00000060: 0000 803f 0000 803f 0000 803f 0000 803f
00000070: 0000 803f 0000 803f 0000 803f 0000 803f
1.0 1.0 1.0 1.0 1.0 1.0 1.0 1.0
1.0 1.0 1.0 1.0 1.0 1.0 1.0 1.0
1.0 1.0 1.0 1.0 1.0 1.0 1.0 1.0
1.0 1.0 1.0 1.0 1.0 1.0 1.0 1.0

static_variable_selection.single_variable_grns.longitude.gate_norm.add_norm.norm.bias f4 [32]
00000000: 0000 0000 0000 0000 0000 0000 0000 0000
00000010: 0000 0000 0000 0000 0000 0000 0000 0000
00000020: 0000 0000 0000 0000 0000 0000 0000 0000
00000030: 0000 0000 0000 0000 0000 0000 0000 0000
00000040: 0000 0000 0000 0000 0000 0000 0000 0000
00000050: 0000 0000 0000 0000 0000 0000 0000 0000
00000060: 0000 0000 0000 0000 0000 0000 0000 0000
00000070: 0000 0000 0000 0000 0000 0000 0000 0000
0.0 0.0 0.0 0.0 0.0 0.0 0.0 0.0
0.0 0.0 0.0 0.0 0.0 0.0 0.0 0.0
0.0 0.0 0.0 0.0 0.0 0.0 0.0 0.0
0.0 0.0 0.0 0.0 0.0 0.0 0.0 0.0

static_variable_selection.single_variable_grns.encoder_length.resample_norm.mask f4 [32]
00000000: 0000 0000 0000 0000 0000 0000 0000 0000
00000010: 0000 0000 0000 0000 0000 0000 0000 0000
00000020: 0000 0000 0000 0000 0000 0000 0000 0000
00000030: 0000 0000 0000 0000 0000 0000 0000 0000
00000040: 0000 0000 0000 0000 0000 0000 0000 0000
00000050: 0000 0000 0000 0000 0000 0000 0000 0000
00000060: 0000 0000 0000 0000 0000 0000 0000 0000
00000070: 0000 0000 0000 0000 0000 0000 0000 0000
0.0 0.0 0.0 0.0 0.0 0.0 0.0 0.0
0.0 0.0 0.0 0.0 0.0 0.0 0.0 0.0
0.0 0.0 0.0 0.0 0.0 0.0 0.0 0.0
0.0 0.0 0.0 0.0 0.0 0.0 0.0 0.0

static_variable_selection.single_variable_grns.encoder_length.resample_norm.norm.weight f4 [32]
00000000: 0000 803f 0000 803f 0000 803f 0000 803f
00000010: 0000 803f 0000 803f 0000 803f 0000 803f
00000020: 0000 803f 0000 803f 0000 803f 0000 803f
00000030: 0000 803f 0000 803f 0000 803f 0000 803f
00000040: 0000 803f 0000 803f 0000 803f 0000 803f
00000050: 0000 803f 0000 803f 0000 803f 0000 803f
00000060: 0000 803f 0000 803f 0000 803f 0000 803f
00000070: 0000 803f 0000 803f 0000 803f 0000 803f
1.0 1.0 1.0 1.0 1.0 1.0 1.0 1.0
1.0 1.0 1.0 1.0 1.0 1.0 1.0 1.0
1.0 1.0 1.0 1.0 1.0 1.0 1.0 1.0
1.0 1.0 1.0 1.0 1.0 1.0 1.0 1.0

static_variable_selection.single_variable_grns.encoder_length.resample_norm.norm.bias f4 [32]
00000000: 0000 0000 0000 0000 0000 0000 0000 0000
00000010: 0000 0000 0000 0000 0000 0000 0000 0000
00000020: 0000 0000 0000 0000 0000 0000 0000 0000
00000030: 0000 0000 0000 0000 0000 0000 0000 0000
00000040: 0000 0000 0000 0000 0000 0000 0000 0000
00000050: 0000 0000 0000 0000 0000 0000 0000 0000
00000060: 0000 0000 0000 0000 0000 0000 0000 0000
00000070: 0000 0000 0000 0000 0000 0000 0000 0000
0.0 0.0 0.0 0.0 0.0 0.0 0.0 0.0
0.0 0.0 0.0 0.0 0.0 0.0 0.0 0.0
0.0 0.0 0.0 0.0 0.0 0.0 0.0 0.0
0.0 0.0 0.0 0.0 0.0 0.0 0.0 0.0

static_variable_selection.single_variable_grns.encoder_length.fc1.weight f4 [8, 8]
00000000: ddaf 473f 55b8 c23d 6bde 90be e8a9 bc3e
00000010: 7253 213f 55d4 68bf cab4 57bf 1f90 2c3e
00000020: 485c 683f df9c 583f 85d0 583f 9b3a a13d
00000030: ce11 5dbe 8bf8 c2bc d2d2 213e 2fc3 9c3e
00000040: 56fb dfbe d9c8 c2be 20cc e6bc fd92 5d3d
00000050: f81d cdbc 64be 42bf 3258 e6be 5b3d ab3d
00000060: 3ebe f63e ea36 cabe f570 3d3f 5e03 d03e
00000070: b0a6 49bf 048e f03e e4c5 a03e 56db 68be
00000080: 3ba6 7b3e 5c9d 923f 2912 4dbe d9d6 cebe
00000090: 2e77 a3be 603e 84bd fc82 013f 8ad1 363e
000000a0: 88e3 1d3f 2d1b 113f 7bfc a53e 04f0 efbd
000000b0: 24bf f3bd ce66 3ebe ccc4 bbbe 8889 183f
000000c0: 9960 5fbe 5848 63bf 5942 3abf 6bbf 78be
000000d0: f8e9 a93e 873c e53e 874b 5b3f f3af 833e
000000e0: 6733 19bf 8d04 af3e be03 b03e 4a18 dc3e
000000f0: 3c19 d2be 63a3 aabb 6e6a 553d 735a bdbc
0.7800272 0.09507815 -0.2829469 0.36848378 0.6301795 -0.9094899 -0.8426024 0.16851853
0.9076581 0.84614366 0.84693176 0.07872506 -0.21588823 -0.023800155 0.15803078 0.30617663
-0.43746442 -0.3804386 -0.028173506 0.054095257 -0.025038704 -0.76071763 -0.44989163 0.08361312
0.48192018 -0.3949502 0.74000484 0.4062757 -0.7876997 0.4698335 0.3140098 -0.2273992
0.2457513 1.1454272 -0.20026459 -0.4039829 -0.31926864 -0.064572096 0.5059049 0.1785337
0.6167531 0.5668209 0.3241919 -0.11715701 -0.119016916 -0.18593904 -0.36673582 0.59584856
-0.21814193 -0.8878226 -0.7275749 -0.2429177 0.33186316 0.4477274 0.8566212 0.25720176
-0.5984406 0.3418316 0.34377855 0.4298728 -0.41034877 -0.0052074655 0.052103452 -0.023114419
